model/model.pth (torch, 24384 bytes, 4 tensors)

linear1.weight f4 [512, 8]
000000 f4 af 34 3e 74 a3 a2 3d a4 31 2a be 82 5c 8e 3d
       0.17645246 0.079413325 -0.16620499 0.06951238
000010 5d 87 1e be 4f 55 bd 3d 7b ba 98 3d 86 f2 ab 3d
       -0.15481324 0.09244787 0.07457443 0.08395867
000020 f9 b8 34 be 1f 78 82 bc 4f 77 18 bf 0b fe 29 3e
       -0.17648686 -0.015926419 -0.5955705 0.16600816
000030 21 d4 9a 3d 28 f9 e2 3c 1e 93 84 be 43 37 bb 3d
       0.07559992 0.027706698 -0.25893492 0.091414
000040 9c e9 7a be 72 53 64 3e 21 5c 4c 3c 60 29 36 bb
       -0.24503177 0.22297457 0.012473137 -0.0027795658
000050 f4 ab 36 bc 0c 9d 51 3e 28 5e ab 3d 67 cd a2 3d
       -0.011149395 0.20470065 0.08367568 0.07949334
000060 4b 89 17 3c af f0 53 be 1b 40 8b 3e 83 ba ba be
       0.009249042 -0.20697282 0.27197346 -0.36470422
000070 ef 96 9b be 02 81 1b 3e 11 d0 08 be e6 fa 59 3e
       -0.3038859 0.15185931 -0.13360621 0.21287116
000080 8c 63 38 3d 19 e7 51 3d 30 05 aa 3d c1 61 8a bd
       0.04501681 0.051245783 0.08301771 -0.06756926
000090 25 3a 8e bd 84 d3 ba be cf 2a 92 3e 07 ad 10 3e
       -0.06944684 -0.364895 0.28548285 0.14128505
0000a0 19 85 a2 be 8e 7a cd 3d 9b a3 e3 3c d4 28 c5 3b
       -0.3174217 0.10033141 0.027787974 0.00601683
0000b0 42 9a 5f bc ec 31 4a be 71 cc 9d be 17 8a a6 be
       -0.013647618 -0.19745606 -0.3082004 -0.3252723
0000c0 57 07 0f 3d bf 60 f3 3d 52 63 bf be fa 1f 3d 3e
       0.03491911 0.11883687 -0.37380463 0.1846923
0000d0 ba 8b da 3d c1 1d 85 be f4 60 30 3e 6b db 74 be
       0.10671182 -0.25999263 0.17224485 -0.23911826
0000e0 00 1c 1f bd 8b 6b cd be 6b e6 44 3e 45 5e 4c be
       -0.038845062 -0.4012111 0.19228522 -0.19957836
0000f0 06 2f 8b be da 0c 63 be 00 85 a0 be a0 3e 17 3e
       -0.27184314 -0.22172871 -0.3135147 0.14769983
000100 1a c9 54 bd 26 e3 9c be 38 a2 ae be 6d 0b af 3d
       -0.051949598 -0.3064205 -0.34108138 0.08547101
000110 ba 3a 06 3d 31 5f 22 be 4a 3f 14 3e 41 40 87 3e
       0.03277085 -0.15856625 0.14477268 0.2641621
000120 9f 4a a0 3d 43 3d 43 be 7b e2 07 bf 56 29 7e 3e
       0.07826733 -0.19066338 -0.53079957 0.24820456
000130 cd f9 14 3e 49 3d 0f bf 1d e6 8d bd 6b 0b 0b be
       0.14548416 -0.5595289 -0.06928656 -0.13578574
000140 30 7a 65 3e 7c 58 d1 be f0 70 a8 be 00 88 b1 3d
       0.22409892 -0.4088782 -0.32898664 0.08668518
000150 35 18 fa bd b5 bd 55 3e bd de 19 be a9 42 98 be
       -0.122116484 0.20873149 -0.15026374 -0.29738358
000160 35 1f 43 3d 52 c5 84 3e cf e9 9e be 7a 1c 96 3e
       0.047637183 0.25931793 -0.31037757 0.293186
000170 93 d2 c4 3d dd 5f 32 be 00 22 19 bc 7c 5e bf 3e
       0.09610476 -0.17419381 -0.009346485 0.37376773
000180 0c 47 af be c7 06 df 3d 38 7c 85 ba a0 61 9b bd
       -0.34233892 0.108899646 -0.0010184115 -0.0758698
000190 22 22 94 bd 83 ea 91 be ee dc 98 be ac 53 29 be
       -0.07233073 -0.2849923 -0.29856056 -0.16535825
0001a0 17 fc d7 bc 0b 73 6d bd f0 3f 1b bf 96 59 32 3d
       -0.026365323 -0.05797104 -0.60644436 0.043542467
0001b0 f6 3f 4f bc 09 b2 37 be ef 27 d7 bd 60 be 13 be
       -0.012649527 -0.17939009 -0.105056636 -0.14428091
0001c0 62 c3 5f be 3f 5f 79 be 0a 20 a7 be 8d 8c 93 bc
       -0.21851876 -0.2435274 -0.3264163 -0.018011356
0001d0 81 1e 88 bc 09 41 a5 be 27 b6 99 3d 06 63 a7 bb
       -0.016616108 -0.3227618 0.07505446 -0.00510824
0001e0 69 8a 3a bd 87 25 4d 3e 4b d0 8b be f5 8a e3 bd
       -0.045542154 0.20033847 -0.27307352 -0.11110488
0001f0 9d 1f c2 bd 0d 41 6e be 34 22 59 be ed fa 54 3e
       -0.09478686 -0.23267002 -0.21204454 0.20798846
000200 dc 9d 8f be 00 a1 d4 3d b1 a6 bd 3d ba 9f 8c be
       -0.28050125 0.10382271 0.092603095 -0.27465612
000210 9d 38 6e be f3 3d 8f 3d 3b eb 80 3c d9 05 b3 3e
       -0.23263784 0.06994238 0.015737167 0.349654
000220 c3 c7 c5 bc 37 98 0e 3d 78 c5 38 be bf 78 56 3e
       -0.024143105 0.034813132 -0.18044078 0.20944498
000230 cf 35 78 bd e9 93 75 3e d7 5c 17 3e 33 d0 13 3d
       -0.06059819 0.23982204 0.1478151 0.036087226
000240 2c d4 68 3e 00 c5 9d 3e 69 04 15 bd 62 20 b4 be
       0.22737187 0.30814362 -0.03638116 -0.35180956
000250 2f 75 93 be bd 32 06 3e 1e f6 28 be db 49 16 3c
       -0.2880034 0.13105293 -0.16500136 0.009172882
000260 5e ed 02 bc fb 78 29 3e 1d dd 13 be 8b 61 d5 bd
       -0.007991163 0.16550057 -0.14439817 -0.104189955
000270 87 95 b4 bd 38 a1 86 3c 07 58 72 be b7 33 92 3d
       -0.088175826 0.016434297 -0.23666392 0.0713877
000280 f3 55 1d 3e 05 2f 80 be d6 f1 25 bd 12 78 c7 bd
       0.15364818 -0.25035873 -0.040513836 -0.097396985
000290 5c df 0b be 2d 02 95 bc 2a fe 1c bd 32 13 70 bd
       -0.13659424 -0.018189514 -0.038328327 -0.058612056
0002a0 08 b5 56 3d c4 57 37 be 52 4f f2 3b 7f b7 9c bd
       0.05241874 -0.17904574 0.0073947096 -0.076521866
0002b0 1b 35 94 bd d8 fb 78 bd ab 46 55 3e 0c d2 67 be
       -0.072366916 -0.060787052 0.20827739 -0.2263872
0002c0 5b fc 79 3e 73 36 83 be ec 43 79 bd a0 c0 54 be
       0.24412672 -0.2562748 -0.06085579 -0.20776606
0002d0 81 33 38 be dc cf bb be 36 e4 d1 bd 82 51 a8 3e
       -0.17988397 -0.36682022 -0.10248606 0.32874686
0002e0 df 67 df be fb b5 76 be 90 2c 8f bd 3a 5c 80 3d
       -0.43633935 -0.24092858 -0.069909215 0.06267591
0002f0 91 b9 13 3c 38 5c 1c 3e 5b 36 2c 3e 5e e4 89 be
       0.00901641 0.15269554 0.1681761 -0.26932043
000300 b4 bf 63 3e b1 64 da bc 70 ce 21 3e 6c 4f ab bd
       0.22241098 -0.026659342 0.15801406 -0.08364758
000310 54 29 96 be 95 c6 69 be 81 77 20 3e 56 46 3f 3e
       -0.29328406 -0.2282966 0.15670587 0.18679175
000320 cd 36 ad 3e 46 79 08 bf 01 4a 58 3d 88 0d cf 3d
       0.33830872 -0.5331005 0.05280495 0.10110003
000330 af 27 de 3c 6d 09 1d 3e fc 85 d4 be 96 cf 72 3c
       0.027118532 0.15335627 -0.41508472 0.01482
000340 31 a7 77 bb b8 ef a4 bc 8c 09 ae bd be a6 2f be
       -0.0037788863 -0.020133838 -0.08497915 -0.17153451
000350 fc f3 7b be ba 30 fc 3d 20 50 98 3e 75 2b 0c bd
       -0.24604791 0.12313981 0.2974863 -0.03422113
000360 75 9b 2d 3e 27 f5 60 be 1a 16 14 bc 36 95 a0 3e
       0.16953833 -0.21968518 -0.009038473 0.3136384
000370 cd fe 67 3e 7c 14 0e 3a 40 f8 9b 3e 17 6e 4c 3e
       0.22655793 0.00054199225 0.30462837 0.19963871
000380 4c 84 98 be a8 4d 1a be b1 19 c7 3c e4 bf 51 be
       -0.29788435 -0.15068686 0.024304243 -0.20483357
000390 4c d3 4b 3d 86 3b 33 be d5 21 7a 3e fc 4c 49 3d
       0.049762055 -0.17503175 0.24426968 0.049145684
0003a0 55 28 78 bd bc c0 bc be 92 1d c9 bd 38 87 80 3d
       -0.06058534 -0.36865795 -0.09820093 0.06275791
0003b0 c4 e7 06 3c b2 78 72 be d0 4a a6 be ad 62 26 3c
       0.008233968 -0.23678854 -0.32478952 0.010155362
0003c0 92 fd 83 3e ce 1c 35 be 87 04 96 be 3f b2 c5 bb
       0.25779396 -0.1768677 -0.2930033 -0.0060332115
0003d0 73 5f 88 bc 63 1a 2e be 6c 08 4c bc 30 f1 fd bd
       -0.016647076 -0.17002253 -0.01245318 -0.123995185
0003e0 c8 59 4f be fa c8 1e 3d 0c 3b b1 be 5d d6 5e 3e
       -0.20249093 0.038765885 -0.34615362 0.2176146
0003f0 4a 59 4b 3e 47 95 e9 be 3c 79 0b 3e ff c9 9a be
       0.1985828 -0.45621702 0.13620466 -0.30232236

linear1.bias f4 [512]
000000 36 f3 dd be a1 53 a4 bd d0 99 4e 3c 27 dd e5 3d
       -0.43349618 -0.080237634 0.012609914 0.11223822
000010 8e 0f 44 3c 58 08 e1 3d f0 b4 03 3e 97 8b 55 3e
       0.011966599 0.109879196 0.12861991 0.2085403
000020 7b ea e3 bc d1 a3 47 bd 41 5c dc bd ff 5e 3b be
       -0.02782177 -0.048740212 -0.107597835 -0.18297957
000030 f7 73 46 3d 59 b9 1a bb ca cd bd bd 91 f0 07 be
       0.048450436 -0.002360901 -0.09267767 -0.13275363
000040 b1 88 84 bd fc 5d c0 be 6b 47 b5 ba e1 85 b5 3d
       -0.06471384 -0.37571704 -0.0013830488 0.08863426
000050 4b 12 2b 3e 39 f0 c5 be 00 7a 9e be 7b a6 90 be
       0.16706197 -0.38659838 -0.30952454 -0.28252015
000060 f8 f7 98 be 65 2a 0b be cc f4 b1 be f4 ec d8 be
       -0.29876685 -0.13590391 -0.34757078 -0.4236828
000070 a4 a8 23 3e 70 9b 00 be da 22 af be 74 8b bf be
       0.159823 -0.12559295 -0.34206277 -0.37411082
000080 bd 1c 1d be b2 c1 85 3e bd 37 00 bf ee e2 22 3e
       -0.15342994 0.2612434 -0.5008505 0.1590688
000090 a6 06 a5 bd 0b 57 ca be 00 2f 33 be d9 20 9c be
       -0.08057909 -0.39519534 -0.17498398 -0.3049381
0000a0 79 e0 90 bd c1 9d b0 be 28 4e 89 3e 75 4a 98 be
       -0.07074065 -0.34495357 0.2681744 -0.29744306
0000b0 8a 4b 9d be 26 b0 8c bc fc ef ad be 6d 25 3d be
       -0.30721694 -0.017173838 -0.33972156 -0.18471308
0000c0 bb 45 da bd 8c da 37 3e bc 6b 17 bf 58 80 d8 be
       -0.10657831 0.17954463 -0.59148765 -0.4228542
0000d0 6e 7b c9 3d cc 4e d0 3d d2 a1 b4 be ff 3c ab be
       0.098379955 0.10171279 -0.3527971 -0.33444974
0000e0 b1 de b6 be b5 e2 cf bd 05 5a a7 be ad 00 88 3d
       -0.35716775 -0.10150663 -0.32685867 0.06640754
0000f0 4a 95 28 3e 7e 5d 8e 3d f6 57 aa be 3a d8 4e be
       0.164632 0.06951426 -0.33270234 -0.20199671
000100 e2 bc 02 3e 08 89 d7 be 1d c6 06 3d ae e4 a7 bd
       0.12767366 -0.42096734 0.03290378 -0.08197914
000110 b1 d3 e4 be 32 24 db 3d 61 7d 74 3e 28 50 5e be
       -0.44692758 0.10700263 0.23875953 -0.21710265
000120 37 be 3f be 79 df c8 be 52 11 94 be c4 ce 1e 3a
       -0.18724905 -0.39232996 -0.28919464 0.0006058032
000130 1c cc 1c 3e 93 35 d1 be 7e 74 79 be d9 27 9c be
       0.15312237 -0.40861186 -0.24360844 -0.3049915
000140 b8 0e 90 3d 70 51 d7 be b0 9a 03 bf c2 3b 59 bd
       0.070340574 -0.4205432 -0.5140791 -0.053035505
000150 78 e0 d4 be e9 b2 14 3d d1 fa 24 3d 39 7e 86 be
       -0.41577506 0.036303435 0.04027826 -0.26268175
000160 2c cb cd be dc 7b 80 bd 3b dd 79 be 65 29 d0 3d
       -0.4019407 -0.06273624 -0.24400799 0.101641454
000170 63 be 27 3e 2a a4 bf be c1 10 29 be 3e 1b 94 3d
       0.1638122 -0.37429935 -0.16510297 0.072317585
000180 bd 4f ab 3d 47 d5 ed be e3 7c 45 3d f4 b1 1c bf
       0.08364818 -0.4645178 0.048214804 -0.61209035
000190 b4 1c 90 be 83 76 9b be 2e a7 d9 3c ef 7b a1 be
       -0.281469 -0.30363855 0.026568975 -0.31539866
0001a0 03 6d ce be cd c3 7e 3c d7 f8 d5 bb 8e f9 79 be
       -0.40317544 0.015549612 -0.006529908 -0.24411604
0001b0 11 2e d5 bd fe d1 a3 be cc 3a 91 be 90 b4 94 bd
       -0.10409177 -0.3199615 -0.2836517 -0.07261002
0001c0 17 b7 10 3d ff 57 a6 ba b1 c0 d5 be 59 54 fe be
       0.035330858 -0.001269102 -0.41748574 -0.49673727
0001d0 1b 04 54 3e 87 2d df be 92 97 a8 bd d1 be 4a 3d
       0.20704691 -0.43589422 -0.08232035 0.049498383
0001e0 4a 56 ab bd 9a 9a f7 be 4c 54 c0 3d 8f a7 0b bf
       -0.08366068 -0.4836014 0.09391078 -0.5455255
0001f0 cd ba 73 bd 47 32 dc be cc 0d 22 bd 54 fa 60 bd
       -0.05950432 -0.4300711 -0.03956394 -0.05492623
000200 fe f8 ff be f5 c5 1c be d1 76 d9 be 2a a6 4c be
       -0.49994653 -0.1530989 -0.42473462 -0.19985262
000210 72 93 b1 3d 52 c3 e8 be 91 d4 32 bf 60 2b 81 be
       0.08670701 -0.45461518 -0.698556 -0.25228405
000220 79 39 b0 be 00 fa 82 be 9d f9 ef bd 25 b3 fc 3d
       -0.34418848 -0.2558136 -0.11717532 0.123388566
000230 53 b1 f3 3b 47 7f 23 be 95 ff c7 bc b6 37 2a 3e
       0.00743691 -0.15966521 -0.024413863 0.16622815
000240 f9 16 40 be 01 04 56 3e 43 14 cd bd 35 1e 61 3e
       -0.18758763 0.20899965 -0.1001363 0.2198418
000250 46 88 5a be 17 dd ac be b6 ac 87 be cd d6 41 3e
       -0.21341047 -0.33762428 -0.26498955 0.18929596
000260 7e 63 70 be e6 c2 27 bf 69 d4 c2 bd d5 97 8a be
       -0.23475453 -0.65531766 -0.0951317 -0.27068964
000270 74 34 0e bf 0e 83 1b be e2 04 ad bd 62 b2 07 bf
       -0.5554879 -0.15186712 -0.08448197 -0.53006566
000280 a4 4c 38 3d 5f 1a c4 bd 80 6d 06 bf 3c f9 8f be
       0.044994965 -0.095753424 -0.52510834 -0.28119838
000290 ba 59 f6 3d de a0 0e 3c 08 41 17 3e 75 0b ac 3d
       0.12028833 0.008705346 0.14770901 0.08400623
0002a0 a5 b3 88 bd dd 89 10 be 1c 8e af be b6 5b 10 3e
       -0.066748895 -0.1411509 -0.34288108 0.14097485
0002b0 6b 69 45 be 40 11 87 bd 5a 6d cb be 9d 76 8c be
       -0.19278495 -0.06595087 -0.39731866 -0.27434245
0002c0 ac bc 7e 3e 51 5e 1e be a0 22 5d 3e bf d1 bf 3d
       0.2487666 -0.15465666 0.2159524 0.09366178
0002d0 83 d8 95 be 8b bd ff bd 0e 59 38 3e dc 09 b5 3d
       -0.29266748 -0.12487324 0.18002722 0.08839771
0002e0 d5 3f cc be 67 67 1d 3e a4 da 9e be b5 ac 58 bc
       -0.3989245 0.15371476 -0.31026185 -0.01322477
0002f0 35 d2 a0 be 35 11 68 3c 5d 40 af bd 63 04 d1 be
       -0.31410375 0.014164259 -0.08557198 -0.4082366
000300 ab 9d 32 be 58 dd 88 3e 00 d3 9d be 0d 0e bb be
       -0.17442958 0.26731372 -0.30825043 -0.36534157
000310 cc be b5 be a6 94 a0 3d c3 ca a3 3d e7 14 fe be
       -0.3549713 0.078408524 0.07997658 -0.49625322
000320 af 0b 92 be c3 73 54 be 55 f5 fb bc 0a 70 b5 bd
       -0.2852454 -0.20747285 -0.030756632 -0.088592604
000330 c5 9c a2 3d 31 92 47 3e 11 90 96 3d 81 3e 60 be
       0.07940058 0.19489361 0.07351697 -0.21898843
000340 65 28 ea bd 84 a5 e2 be 62 8a 60 3e 9d dd 4c 3d
       -0.11433486 -0.44266903 0.21927789 0.050016034
000350 e7 e7 b6 be 8f cb cb be b6 90 15 bf 31 dc b3 be
       -0.35723802 -0.3980374 -0.58423936 -0.3512893
000360 56 a6 93 3e 2c 94 1e be 63 03 07 be 22 13 9e be
       0.28837842 -0.1548621 -0.13184886 -0.30873972
000370 c7 63 6e be 1d 3e 22 be 54 5f 8d 3d cd 30 d9 bd
       -0.2328025 -0.15844007 0.06902948 -0.10605011
000380 f2 be e8 be 54 67 c0 be cf a8 22 3a 28 4a 08 3d
       -0.4545818 -0.37578833 0.0006204964 0.033273846
000390 f4 ee cd be 0f 73 61 be 15 35 cd be 8b 4e b3 bd
       -0.4022137 -0.22016548 -0.4007956 -0.08755215
0003a0 e6 d7 0a bf c2 d1 00 be 78 58 f6 be e1 df 8f bb
       -0.54235685 -0.12580016 -0.4811437 -0.004390702
0003b0 82 59 5d be bc 10 77 3e 50 de 97 3d de 7e 94 3e
       -0.21616176 0.24127477 0.074154496 0.29003042
0003c0 82 65 1a be 61 74 ad be 46 e7 26 be ee 11 2f bd
       -0.15077785 -0.33877853 -0.16299161 -0.04274171
0003d0 8c 50 1f be a2 2a f8 bd a7 8e 28 bf 68 ec 36 3d
       -0.1555807 -0.121175066 -0.6584267 0.04465905
0003e0 42 18 e0 bd f0 ec 35 be 56 cd 0a be dd 7b 6f 3d
       -0.10942127 -0.17766166 -0.13554892 0.058467735
0003f0 cc 35 e3 bd 26 dc be be e0 6b 1b bf 75 07 50 bd
       -0.11094245 -0.37277335 -0.6071148 -0.05078836

linear2.weight f4 [2, 512]
000000 79 a4 8e bc a6 dc 0e bd 55 3f 35 3b 4a f6 8f 3c
       -0.017412411 -0.034878395 0.0027656157 0.017573494
000010 53 49 fe 3c d5 4a 49 bc 8e 42 1a bd f9 fa 15 3d
       0.031040823 -0.012285908 -0.037661128 0.0366163
000020 cc 46 13 bd aa 59 a7 bc 82 9b a1 3c 58 1d 51 bd
       -0.03595619 -0.020428497 0.019727472 -0.051053375
000030 53 d9 7a bc a8 3d f1 bc b4 4b 2b bb ae a0 ed bc
       -0.015310603 -0.029448345 -0.0026137652 -0.029007282
000040 e4 6b 2b 3d d0 da 48 bd 81 01 e1 3c 0c 8f 89 3b
       0.04185094 -0.0490368 0.027466537 0.0041979607
000050 3e 0d 63 bc 38 09 c6 3c 7a fb 18 3c fa be 8f bc
       -0.013858138 0.024174318 0.0093373 -0.01754712
000060 08 6c b4 bb 76 14 0f bc 0b fe 2e 3d 21 33 d0 bc
       -0.0055060424 -0.008732906 0.042722743 -0.025415005
000070 90 3e d2 3c a7 34 be bc c8 85 7c 3c 11 8f 93 bc
       0.025664598 -0.023218466 0.015412755 -0.018012555
000080 f6 df 11 bd d7 52 cd 3c 71 db 28 3c 93 be 13 bc
       -0.035613976 0.025063915 0.010306225 -0.009017604
000090 6a 67 11 bc 06 a0 6a bd f4 b5 96 bc c1 a3 be bc
       -0.0088747535 -0.057281516 -0.018397309 -0.023271443
0000a0 78 7e e1 bc 81 eb 1f 3a b5 77 29 bd 1e 15 a5 3c
       -0.027526125 0.00061004615 -0.041373927 0.020151671
0000b0 a9 6f e7 3c 3c 41 69 bc 3c e2 08 3a 63 97 e4 3c
       0.028251486 -0.0142367445 0.00052217 0.027904218
0000c0 b5 10 c5 bb 6f 43 94 3c 96 0c 0a bd 8c ff 80 bc
       -0.0060139545 0.018098561 -0.03370341 -0.015746854
0000d0 72 2f e5 bc 58 f8 13 bd b7 ec 07 3c 1d 8c 54 3b
       -0.027976725 -0.03612551 0.008296183 0.0032432147
0000e0 ec a0 28 3d 07 0e 63 bd d3 1a de 3a e5 c8 74 bc
       0.041169092 -0.0554333 0.001694525 -0.014940475
0000f0 ff c6 94 3c 21 39 85 3c c4 7d e9 3c 43 83 ac 3b
       0.018161295 0.016262593 0.028502353 0.005264671
000100 1a e6 ed 3c 7c 67 37 3c 36 17 9a ba f4 95 46 bc
       0.029040385 0.011194106 -0.0011756185 -0.012120713
000110 23 d7 11 bc 46 7f 01 bd fc bd 94 3b 43 45 54 bc
       -0.00890139 -0.031615518 0.0045392495 -0.012955966
000120 f1 11 cf bc 42 3c 99 3c ce 95 e0 bc ad 55 10 bc
       -0.02527711 0.018705491 -0.027415182 -0.008809489
000130 2c b3 0f bd 60 cb cf bc 6e d2 8b 3c 1c 12 90 3c
       -0.03508298 -0.025365531 0.017068114 0.01758676
000140 12 d7 10 bc c5 9f 72 bd d6 97 d7 bb da 24 23 bd
       -0.008840339 -0.0592344 -0.0065793796 -0.039830066
000150 77 c1 d6 3c ce 48 54 bd 65 92 83 3b 01 31 7e bc
       0.026215298 -0.051827244 0.0040152543 -0.015514613
000160 bc f5 84 3c 58 77 be 3c 29 0a 21 bc 73 aa 81 bb
       0.016230457 0.023250267 -0.0098290825 -0.0039570867
000170 7c 1a 10 bd 50 44 36 bd 60 bb 88 bc 60 97 e6 3b
       -0.035181507 -0.04449874 -0.01669091 0.0070370883
000180 b8 5f c1 bc 2d 91 f1 bc 53 7c 01 bd 23 e3 01 bd
       -0.023605213 -0.02948817 -0.031612705 -0.031710755
000190 d6 31 80 bc c6 1e 10 bd 36 2c e3 3c 74 52 f3 bc
       -0.015648764 -0.035185598 0.027731042 -0.029702403
0001a0 44 51 e0 bb 79 db 86 bc f0 49 10 3c d5 b4 a6 bc
       -0.006845625 -0.016462075 0.008806691 -0.0203499
0001b0 74 f1 14 3c cb 6a 6d ba f4 6c 80 bc dd 74 ab 3c
       0.00909077 -0.0009056746 -0.015676953 0.020929748
0001c0 27 9a 68 bd fa 6c 1f 3d 45 d1 1c bc 86 78 bf bc
       -0.056787636 0.038922288 -0.009571378 -0.0233729
0001d0 38 a7 a1 bc 89 70 99 bc 2a b4 a9 bc 08 f1 83 3a
       -0.019733056 -0.018730419 -0.020715792 0.001006634
0001e0 a9 26 f4 bc 6a f4 0f ba 10 d3 4c bc b9 64 bf bc
       -0.02980359 -0.00054914376 -0.012501493 -0.023363458
0001f0 39 27 88 bb ee b7 9f bc 9f 40 6e bb 24 58 79 3b
       -0.0041550663 -0.019496884 -0.0036354435 0.003804692
000200 bc 82 00 bd 78 a3 73 39 16 58 1c 3c 3a d1 33 bd
       -0.031374678 0.00023235183 0.009542486 -0.043900706
000210 5f da a4 3c 01 ea 20 3c cc 17 c3 bc 0c dc b8 bc
       0.020123659 0.009821416 -0.023815058 -0.022565864
000220 c1 4e 91 3b e7 3c 41 bc 83 8a af bc df b8 d9 bc
       0.004434437 -0.011794305 -0.021428352 -0.026577411
000230 54 fa c5 3c 61 60 8d 3c 72 f5 a1 3c 82 85 27 bd
       0.024167217 0.017257871 0.019770358 -0.040898807
000240 47 4b 59 3b 9a 92 4c 3d e2 70 70 bb 1d 59 e9 bc
       0.003315644 0.049944498 -0.0036688377 -0.028484875
000250 cf a5 cb 3c f6 ac 7b bc c7 0a f0 3a 7b fb 82 3c
       0.024859337 -0.015361061 0.0018313759 0.015989056
000260 dd 14 1f bd e1 b3 22 bd 6c ca 7f bc e2 4a d9 bc
       -0.038838256 -0.039722327 -0.015612226 -0.026524965
000270 a4 95 c2 bc c5 0f 95 3b 08 e5 b6 bc 68 8a c4 bc
       -0.023752995 0.004548999 -0.022326007 -0.023991778
000280 73 f4 ce bc 44 fd a5 bc 58 d0 b8 bc d2 3a e2 bc
       -0.025263047 -0.020262368 -0.022560284 -0.027615938
000290 9d 0a 78 bd c3 ca 20 bd 17 5f 5d bd ab e0 0f 3c
       -0.060556997 -0.03925587 -0.054045763 0.008781592
0002a0 0f 33 0b bd 9c 7d 14 bd 15 eb e2 3b 81 93 ba bc
       -0.03398424 -0.036252603 0.0069249966 -0.022775413
0002b0 ac ae 17 bc 1f 56 36 bb 5e 8b b2 bc 7b d1 36 bc
       -0.009257954 -0.0027822328 -0.021794971 -0.0111583425
0002c0 8a 04 20 3d 70 a0 20 b8 c3 89 f3 b9 3f 4d 0f 3c
       0.03906683 -3.829639e-05 -0.00046451212 0.008746444
0002d0 35 e3 db bc 10 a3 5b bb a9 71 2c bb 55 40 2d 3b
       -0.02684174 -0.003351394 -0.0026312864 0.002643605
0002e0 e8 3c 09 bc 5e 24 eb bc 65 89 e1 3c 6d d1 e9 bc
       -0.008376338 -0.028703865 0.027531335 -0.028542245
0002f0 11 4f 13 3c a3 e3 f3 3c db 72 1c bc 58 25 39 bd
       0.008991019 0.029771632 -0.009548868 -0.04520163
000300 97 c0 c0 3c f4 13 ba bc ee 91 08 bd cd a9 eb 3b
       0.023529334 -0.022714593 -0.033342294 0.0071918727
000310 f6 1b 14 3d 10 95 d2 bc d1 0e 01 bd 6a d5 3a bd
       0.036159478 -0.025705844 -0.03150827 -0.045613684
000320 e5 9c 03 3c ca 27 06 bd ec 11 26 3b d5 1e 82 bc
       0.008033012 -0.03275279 0.0025340272 -0.015883842
000330 f2 9a ac 3c 54 19 46 3b 05 70 3c bd a3 22 ec bc
       0.021069977 0.00302275 -0.046005268 -0.02882511
000340 ab f1 55 3c a9 9f 01 bd 89 7b bd 3c f0 07 34 3b
       0.013058106 -0.031646404 0.023130195 0.0027470551
000350 5e 67 99 3c 86 6a 7e bc 8b da e7 bc f6 51 01 bd
       0.018726047 -0.015528327 -0.028302452 -0.031572305
000360 8b 6c ea bc 8e c8 eb bc 01 96 12 bd 7d 96 4b 3c
       -0.02861621 -0.028782155 -0.035787586 0.012426016
000370 5f 92 ac 3c 81 f6 a4 bc b8 1e a8 b4 9f 45 60 bc
       0.021065889 -0.020137073 -3.131479e-07 -0.013688474
000380 e6 51 34 bd ac 0c 60 bb 1a 56 06 3d 38 cc ad bc
       -0.044023417 -0.003418724 0.032796957 -0.021215543
000390 03 ac b2 bc cf 3d b5 bc a7 d1 34 bc a1 bf f6 bc
       -0.021810537 -0.0221242 -0.011036313 -0.030120673
0003a0 18 aa 2f bd d7 b5 8c 3b 61 9e 46 3c 77 d9 82 3b
       -0.042886823 0.004294138 0.012122721 0.003993209
0003b0 b9 e8 05 3d c9 3d 0b bd e3 5c 99 3c f0 b7 cc 3c
       0.032692645 -0.03399447 0.01872105 0.024990052
0003c0 fc c0 ed 3b 06 68 02 bd 73 20 be bb 4b c9 95 bc
       0.0072556715 -0.031837486 -0.005802208 -0.01828446
0003d0 93 c4 44 3d 0f 05 a7 bc d9 89 09 bd c2 69 28 3c
       0.04803903 -0.020388154 -0.033578727 0.010279121
0003e0 1c d6 20 bd ef 6a a0 bc 77 97 81 bc 99 57 10 bd
       -0.03926669 -0.01958224 -0.015819294 -0.03523979
0003f0 77 85 80 bc 8e e4 0c bc 82 a2 18 bd 2b 4a e6 bc
       -0.015688641 -0.008599414 -0.037264355 -0.028111538

linear2.bias f4 [2]
000000 a4 6b 96 3c 08 b6 a0 3c
       0.018361874 0.01961805
