model/model.pth (torch, 24384 bytes, 4 tensors)

linear1.weight f4 [512, 8]
-0.11495431 0.0015465275 -0.19478105 0.059595525 -0.0054279068 -0.7913645 -0.25197384 -0.32575315
-0.6039423 -0.47644863 -0.3411271 0.01302552 0.009006318 -0.535066 -0.4016932 -0.5783665
-0.69527924 -0.38773394 -1.0625982 0.006600336 0.016747223 -1.0165042 -0.20442073 -0.04340594
-0.34524113 0.21005802 -0.1809242 -0.11823005 -0.11593609 -0.35777718 0.07889094 0.123205535
-0.41895294 -0.036440756 -0.8227319 0.050917316 0.021642968 -0.43589342 -0.4695333 -0.6689456
-0.69823796 -0.067720875 -0.71747965 0.045226954 0.027677828 -0.6951488 -0.046757855 -0.6046669
-0.11077342 -0.11133022 -1.014149 0.044600997 0.054980397 -0.6927342 -0.24027146 -0.72155255
0.24181011 -0.22687934 -0.3568887 -0.16519181 -0.13927013 -0.05032206 0.26808584 -0.12406358
-0.12689641 -0.07513526 -0.17501809 -0.023118313 -0.02412733 -0.2910027 -0.5751079 -0.053192403
-0.4161196 -0.22208573 -0.33928043 -0.21160077 -0.22527352 -0.19599332 0.10383222 0.17217055
-0.24436489 -0.5145547 -0.10235173 -0.085055366 -0.07328705 -0.29683077 -0.09780797 -0.12145652
-0.46068764 -0.2510542 0.0011159594 -0.2602472 -0.21342793 -0.15439872 -0.113625005 0.062365104
-0.1938476 -0.32791445 -0.3366292 -0.15630998 -0.11732118 -0.045033526 0.20323916 0.018457387
-0.34566933 -0.416739 -0.26760828 0.030979518 0.028181398 -0.57766235 -0.17639677 -0.4028067
-0.12063941 -0.48261222 -0.15716916 -0.04942241 -0.046196096 -0.30511746 -0.5157644 0.0023792274
0.036302827 -0.06921212 -0.1442261 0.17292026 -0.06731572 -0.22657238 0.11383603 -0.06563634
-0.43544012 -0.553009 -1.0078144 0.033352945 0.041355513 -0.5880107 -0.13548332 -0.73230445
-0.37862203 -0.23647662 -0.43411198 -0.061043452 -0.053947378 -0.5972988 -0.42768547 0.013364865
-0.49252546 0.108504295 -0.05780128 0.0041872105 0.029361062 -0.70185816 -0.41623503 -0.33975738
-0.19849963 0.3134563 0.15788281 -0.18202844 -0.15041447 0.09189758 -0.19626409 -0.34813705
0.25682372 0.053070422 -0.3195523 -0.19921573 -0.16809112 -0.20237117 -0.1642858 -0.018584862
0.122110665 -0.40076348 -0.5095986 -0.022649098 0.021863261 -0.3158436 0.07278178 -0.36946326
-0.4017953 -0.23691542 -0.26793018 -0.08987426 -0.07478988 -0.2532685 -0.40289527 -0.12004852
-0.30783525 0.050461415 -0.62709904 0.20558672 0.19559191 -0.30425584 0.055396385 -0.30265898
-0.14412452 -0.08302053 0.043198332 -0.35111147 -0.2953368 -0.030670471 -0.118479334 -0.018922796
-0.22413363 -0.24709325 -0.37935802 0.085304804 0.014431259 -0.6381508 0.2342068 -0.37053785
-0.059223846 0.0074688997 -0.25053373 -0.09416852 -0.07890202 0.13437551 -0.14643121 -0.1460363
0.16526961 -0.09759751 -0.29384932 -0.13227186 -0.16730909 -0.00039903627 -0.16710904 0.0721225
-0.0820124 -0.29386824 -0.16251312 -0.030366333 -0.022510735 -0.2715374 0.007821862 -0.011757583
-0.34329075 -0.24065675 -0.4542727 -0.17928208 -0.15676239 -0.1958972 -0.04773176 0.05861581
-0.84956306 -0.6167969 -1.1580719 -0.04606562 -0.091059074 -0.3955802 0.09391804 0.06327425
0.06307866 -0.048084725 -0.2706491 -0.32944354 -0.2823126 -0.12125218 -0.061141673 -0.3134817
00000000: 2a6d ebbd dab4 ca3a af74 47be 701a 743d
00000010: 95dc b1bb dd96 4abf b702 81be 1ec9 a6be
00000020: f69b 1abf 13f1 f3be 36a8 aebe fe68 553c
00000030: 3c8f 133c 16fa 08bf bbaa cdbe d40f 14bf
00000040: d2fd 31bf 1085 c6be 3803 88bf a247 d83b
00000050: 7931 893c cf1c 82bf ab53 51be 6dca 31bd
00000060: 72c3 b0be 7319 573e 3244 39be 9922 f2bd
00000070: e76f edbd 922e b7be 9391 a13d 2f53 fc3d
00000080: 0081 d6be e742 15bd 8f9e 52bf ad8e 503d
00000090: 984c b13c 6c2d dfbe ab66 f0be 0540 2bbf
000000a0: b9bf 32bf 3eb1 8abd bfac 37bf e63f 393d
000000b0: 9dbc e23c 46f5 31bf 2a85 3fbd 73cb 1abf
000000c0: 2ddd e2bd 1901 e4bd a2cf 81bf 89af 363d
000000d0: 2033 613d 0757 31bf b909 76be abb7 38bf
000000e0: 129d 773e 0f53 68be 1eba b6be 0b28 29be
000000f0: d49c 0ebe 811e 4ebd 8c42 893e 0c15 febd
00000100: 22f1 01be 84e0 99bd f137 33be 9e62 bdbc
00000110: aea6 c5bc 4efe 94be 453a 13bf 47e0 59bd
00000120: a10d d5be 716a 63be 2ab6 adbe dfad 58be
00000130: 1aae 66be 79b2 48be fda5 d43d 7a4d 303e
00000140: ca3a 7abe dbb9 03bf c99d d1bd 8231 aebd
00000150: 8517 96bd 34fa 97be 8c4f c8bd 32be f8bd
00000160: 40df ebbe 2d8a 80be 6245 923a 1f3f 85be
00000170: da8c 5abe b31a 1ebe 3ab4 e8bd 8d72 7f3d
00000180: fc7f 46be 67e4 a7be aa5a acbe b90f 20be
00000190: 1646 f0bd 1375 38bd ed1d 503e f233 973c
000001a0: 92fb b0be d05e d5be f403 89be c2c8 fd3c
000001b0: addc e63c aee1 13bf 5ba1 34be ae3c cebe
000001c0: cc11 f7bd f318 f7be f4f0 20be 276f 4abd
000001d0: 1e38 3dbd 5b38 9cbe 2309 04bf d0ec 1b3b
000001e0: 46b2 143d 15bf 8dbd 02b0 13be 0212 313e
000001f0: d3dc 89bd 9702 68be dd22 e93d 586c 86bd
00000200: 02f2 debe ff91 0dbf 1000 81bf 199d 083d
00000210: 6664 293d df87 16bf 24bc 0abe 4e78 3bbf
00000220: bfda c1be ed26 72be ed43 debe b308 7abd
00000230: edf7 5cbd 93e8 18bf 97f9 dabe 4ff8 5a3c
00000240: 4c2c fcbe 8037 de3d 09c1 6cbd de34 893b
00000250: 9c86 f03c faac 33bf c21c d5be aef4 adbe
00000260: 7d43 4bbe 587d a03e 08ac 213e aa65 3abe
00000270: 4006 1abe cc34 bc3d 74f9 48be 053f b2be
00000280: 667e 833e 5f60 593d 5c9c a3be 35ff 4bbe
00000290: 1420 2cbe 633a 4fbe 893a 28be 483f 98bc
000002a0: 2815 fa3d df30 cdbe 0e75 02bf 9a8a b9bc
000002b0: 951a b33c 41b6 a1be 9d0e 953d 4a2a bdbe
000002c0: 1db8 cdbe f599 72be 252e 89be ff0f b8bd
000002d0: 702b 99bd 69ac 81be 4a48 cebe 00dc f5bd
000002e0: 959c 9dbe a1b0 4e3d 9089 20bf 5385 523e
000002f0: 3f49 483e 6cc7 9bbe 52e7 623d 1ef6 9abe
00000300: 6195 13be ab06 aabd bcf0 303d e2c4 b3be
00000310: 6336 97be a440 fbbc 4ba5 f2bd fb03 9bbc
00000320: 4983 65be 0306 7dbe 373b c2be 49b4 ae3d
00000330: 1671 6c3c da5d 23bf e8d3 6f3e 23b7 bdbe
00000340: b494 72bd acbd f43b f545 80be 6ddb c0bd
00000350: 6297 a1bd bc99 093e 10f2 15be 8a8a 15be
00000360: 703c 293e 34e1 c7bd 6b73 96be 4672 07be
00000370: 1353 2bbe be35 d1b9 a21e 2bbe f6b4 933d
00000380: 1ef6 a7bd e675 96be d769 26be d1c2 f8bc
00000390: 6f68 b8bc f306 8bbe 4427 003c e1a2 40bc
000003a0: cec3 afbe b96e 76be 6e96 e8be b995 37be
000003b0: 5286 20be 4799 48be 6182 43bd 2217 703d
000003c0: f77c 59bf 67e6 1dbf b33b 94bf 4eaf 3cbd
000003d0: 2e7d babd 7d89 cabe 1a58 c03d ee95 813d
000003e0: 622f 813d 7df4 44bd 8592 8abe d3ac a8be
000003f0: 478b 90be 1053 f8bd b16f 7abd ac80 a0be

linear1.bias f4 [512]
-0.3754469 -0.74559844 -0.8549023 -0.17063802 -0.5080778 -0.589478 -0.6130905 -0.061886396
-0.59443265 0.1104209 0.123174466 0.023234893 -0.15407942 -0.5322546 -0.37438655 0.07657821
-0.5329238 -0.61979574 -0.13108292 -0.21651885 0.11190695 -0.19479251 -0.108220235 -0.5987983
0.18932834 -0.86060125 -0.07392503 -0.03945866 -0.33652666 -0.4402712 -0.9554819 -0.19945084
0.08065627 -0.7407825 -0.093647964 0.18868266 -0.24077302 -0.30976057 -1.1089582 -0.9470719
-0.34579715 -0.2668624 0.054747667 -0.11812728 -0.8495405 -0.109980114 -0.5870569 -0.89813906
-0.16574642 -0.6266709 0.09602655 -0.81855 -0.48554954 -0.31066635 -1.1790237 -0.1334023
-0.14614105 -0.770652 -0.48700762 -0.31903848 -0.19438422 -0.1325885 -0.18997787 -0.4075471
-0.4231262 -0.4676471 -0.24706931 -0.35575593 -0.5191677 -0.38254166 -0.07267315 -0.5096399
-0.015135324 -0.43797752 -0.10298819 -0.46112794 -0.61900395 0.1401328 -0.39659917 -0.7423688
-0.4059971 -1.0273795 -0.34066883 -0.47890288 -0.4312186 -0.16415292 -0.5057683 0.114099614
-0.5363815 -0.31026125 -0.16592364 -0.6395191 -0.5399557 -0.20944628 -0.4273472 -0.085044004
-0.06947663 -0.35023642 -0.6120297 0.02868558 -0.6247581 -1.1010927 -0.09913655 -0.021141797
-0.09025647 0.08372524 -0.43805754 -0.66318226 -0.26866284 0.2711135 -0.572645 -0.41222206
-0.11996502 -0.37423772 -0.43179077 0.006738875 0.15454474 -0.8445179 -0.473136 -0.5908694
-0.408898 -0.49945566 -0.49433538 -0.4203515 -0.4298255 -0.34600148 -0.51034635 -0.66753954
0.018945795 -0.6337384 -0.31972113 0.061978634 -0.25229162 -0.3746802 0.22825731 -0.28031296
0.09388947 -0.7498569 -0.33925173 -0.36566415 -0.65297216 -0.011039571 -0.9359112 0.02711321
-0.45461455 -0.20246342 -0.5616501 -0.4967498 -0.4294225 -0.50739324 0.04007417 -0.09491663
-0.22278948 -0.37630513 -0.43396768 -0.38394713 -0.09656383 -1.2202 -0.27483845 0.20011938
0.3004464 -0.5844656 -0.19655289 -0.15167825 -0.10446853 -0.37558815 -0.5944925 -0.38013512
-0.7772813 -0.582985 -0.23532844 0.12080448 -0.57620084 -0.7257996 -0.0028019042 -0.46359935
-0.65772367 0.07214078 -0.2718793 -0.030122321 -0.819925 -0.15415306 -0.42406303 -0.17754987
-0.10539466 -0.32700387 0.0030731838 -0.20488077 -0.1546391 -0.20917067 -0.5148965 -0.52021265
-0.07914996 -0.38053018 -1.0827037 0.12452208 -0.0012329628 -0.022040157 -0.37918222 -0.26422656
-0.4108355 -0.037452206 -0.13549544 -0.14483328 -1.0843717 -0.99986035 -0.24518096 0.0950364
-0.30181995 -0.65891343 -0.3405891 -0.5298416 -0.056341 -0.485392 -0.8168273 -1.0470308
-0.49317983 -0.1500842 -0.1677786 -1.094732 -0.5478191 -0.6758872 -0.07992385 -0.3270441
-0.47900173 -0.4284499 -0.68122786 -1.1155142 -0.010430928 0.16953392 -0.8136185 0.0015783214
-0.9621457 0.10015374 -0.28249314 -0.3959119 -0.047308885 -0.7602828 -1.0374751 0.1526901
-0.7816684 -0.3106198 -0.5198426 -0.52230597 -0.2834557 -0.7086554 -0.44582775 -0.35352612
0.17111646 -0.268004 -0.87952584 -0.55541724 -0.36282146 -1.0153699 0.15761739 -0.5761651
00000000: 933a c0be 8adf 3ebf e1da 5abf bcbb 2ebe
00000010: 6311 02bf 08e8 16bf 80f3 1cbf 977c 7dbd
00000020: bd2c 18bf 5a24 e23d e542 fc3d 1a57 be3c
00000030: ffc6 1dbe d641 08bf 98af bfbe 09d5 9c3d
00000040: b26d 08bf efaa 1ebf 9a3a 06be 1eb7 5dbe
00000050: 792f e53d b077 47be 92a2 ddbd d84a 19bf
00000060: 4adf 413e 5d50 5cbf 0266 97bd 679f 21bd
00000070: 394d acbe 3a6b e1be 769a 74bf d73c 4cbe
00000080: 1d2f a53d eca3 3dbf 81ca bfbd 0736 413e
00000090: 348d 76be f098 9ebe 58f2 8dbf 4e73 72bf
000000a0: 530c b1be 30a2 88be 173f 603d b7ec f1bd
000000b0: 7c7b 59bf 413d e1bd 5c49 16bf 71ec 65bf
000000c0: 6eb9 29be 816d 20bf 91a9 c43d 7e8c 51bf
000000d0: f399 f8be a90f 9fbe 40ea 96bf 9d9a 08be
000000e0: 00a6 15be 7349 45bf 1059 f9be 0359 a3be
000000f0: a80c 47be 48c5 07be 8f89 42be 03aa d0be
00000100: ffa3 d8be 716f efbe bdff 7cbe a425 b6be
00000110: 2de8 04bf 80dc c3be a9d5 94bd c377 02bf
00000120: 26fa 77bc 973e e0be 79eb d2bd f618 ecbe
00000130: 0b77 1ebf f97e 0f3e 0c0f cbbe e20b 3ebf
00000140: dade cfbe 2c81 83bf 256c aebe c232 f5be
00000150: afc8 dcbe b417 28be 087a 01bf 0fad e93d
00000160: 4c50 09bf 90da 9ebe e3e7 29be 86b7 23bf
00000170: 893a 0abf 1679 56be 41cd dabe 8d2b aebd
00000180: c349 8ebd 3052 b3be faad 1cbf 05fe ea3c
00000190: 26f0 1fbf 9bf0 8cbf 1b08 cbbd 9031 adbc
000001a0: 62d8 b8bd 2378 ab3d 1449 e0be 50c6 29bf
000001b0: 2d8e 89be 64cf 8a3e dd98 12bf c50e d3be
000001c0: 38b0 f5bd 169c bfbe ae13 ddbe c8d1 dc3b
000001d0: fa40 1e3e 5332 58bf e23e f2be 3843 17bf
000001e0: 145b d1be a7b8 ffbe 8719 fdbe 5038 d7be
000001f0: 1712 dcbe 1b27 b1be 0fa6 02bf dfe3 2abf
00000200: 3634 9b3c ae3c 22bf 7db2 a3be 4fdd 7d3d
00000210: 5e2c 81be 15d6 bfbe 49bc 693e 2e85 8fbe
00000220: 1f49 c03d 9ff6 3fbf 67b2 adbe 5538 bbbe
00000230: 2f29 27bf 51df 34bc e097 6fbf 861c de3c
00000240: 3dc3 e8be 9252 4fbe 4dc8 0fbf fd55 febe
00000250: 44dd dbbe 86e4 01bf d024 243d a663 c2bd
00000260: ed22 64be 11ab c0be 0331 debe b894 c4be
00000270: 42c3 c5bd 832f 9cbf a0b7 8cbe 18ec 4c3e
00000280: 1cd4 993e 8a9f 15bf 2945 49be 8b51 1bbe
00000290: 99f3 d5bd 174d c0be a930 18bf 12a1 c2be
000002a0: e8fb 46bf 813e 15bf f0f9 70be 5768 f73d
000002b0: e681 13bf 01ce 39bf 27a0 37bb e55c edbe
000002c0: 9460 28bf 8cbe 933d c333 8bbe 16c3 f6bc
000002d0: 9be6 51bf 4dda 1dbe ca1e d9be a2cf 35be
000002e0: 28d9 d7bd 0d6d a7be 7867 493b 44cc 51be
000002f0: b659 1ebe d630 56be 42d0 03bf a82c 05bf
00000300: 6019 a2bd dad4 c2be 0996 8abf 6f05 ff3d
00000310: 5e9b a1ba 8f8d b4bc 2c24 c2be b448 87be
00000320: 0859 d2be 7c67 19bd 51bf 0abe 2d4f 14be
00000330: b1cc 8abf d9f6 7fbf b810 7bbe 72a2 c23d
00000340: 2588 9abe 8dae 28bf b261 aebe b3a3 07bf
00000350: d2c5 66bd 4d85 f8be 981b 51bf 1b05 86bf
00000360: 1182 fcbe acaf 19be 27ce 2bbe 2e20 8cbf
00000370: df3d 0cbf f206 2dbf 1eaf a3bd 5372 a7be
00000380: b73f f5be c95d dbbe f364 2ebf 2bc9 8ebf
00000390: 7ce6 2abc 4d9a 2d3e 4d49 50bf aedf ce3a
000003a0: 2e4f 76bf 671d cd3d f1a2 90be f7b4 cabe
000003b0: f6c6 41bd e5a1 42bf fccb 84bf cb5a 1c3e
000003c0: 6c1b 48bf 8f09 9fbe 6814 05bf d8b5 05bf
000003d0: 1b21 91be 716a 35bf 8943 e4be 6001 b5be
000003e0: 2739 2f3e d237 89be 9b28 61bf d32f 0ebf
000003f0: bcc3 b9be a4f7 81bf 7466 213e 8e7f 13bf

linear2.weight f4 [2, 512]
-0.06566144 0.007135085 -0.011080214 0.007670187 0.0007126273 0.014643699 -0.0032525898 0.016516613
-0.0030032194 0.021819338 -0.05039377 0.0107660955 -0.02689384 0.033522766 0.0025322575 -0.0033103172
-0.024913793 -0.013621055 0.006006047 0.021431029 -0.015648663 0.0348778 -0.028977575 0.08251542
0.0076469816 -0.1398918 0.02500363 0.03668994 0.016904838 0.039012097 0.032103736 -0.01030236
-0.031374767 -0.003922626 -0.018609079 -0.10174309 -0.01427716 0.020500025 -0.022359494 0.0056008967
0.017105116 -0.009379792 -0.0066987295 0.006714988 -0.0055565108 -0.0057651047 0.07404264 0.039489113
-0.008781327 0.09666069 0.10542158 0.012347084 -0.02050028 0.0041150707 -0.025087506 0.01928987
0.001081402 0.03171265 0.010029051 0.13223389 -0.13668539 -0.0051999087 -0.014095196 -0.0012869842
-0.022152808 0.019943273 0.1743704 -0.04384412 0.023798771 -0.025080524 0.0136696445 -0.049975157
-0.0036982368 -0.0605062 -0.08430359 -0.07350015 0.023570113 -0.0028063783 0.0020268178 0.013542863
-0.053662866 0.015405329 -0.014491278 -0.013468214 -0.0007232797 -0.010491986 0.009022623 -0.05646111
-0.11954656 -0.020387357 0.027495231 -0.020369276 -0.024997046 0.1095119 0.030826105 -0.04040597
-0.004922701 -0.0035357815 -0.07212922 -0.02385106 0.056799643 0.014468476 0.021463016 -0.07743145
0.011648411 -0.023352325 -0.042670757 -0.022439754 0.049900617 -0.029937591 -0.00633371 0.016385425
-0.023474779 -0.015568363 -0.008009303 0.04692254 0.10728417 -0.0011517445 0.019421976 -0.0006716368
-0.013984839 0.016608803 -0.010147652 0.0056029153 0.010741631 0.00165539 0.05731057 0.020009262
0.029370295 0.009880033 -0.012373564 -0.018864628 -0.007896712 -0.04951483 -0.06646828 0.049262065
-0.050240736 0.005284418 -0.039136454 0.009876804 0.0035761897 0.0049609183 -0.09464248 -0.021933392
0.0017286432 -0.00964895 -0.0023780973 0.008719471 -0.0052160807 -0.015645122 -0.05847713 -0.038725127
0.0010357833 0.0009787211 -0.048764892 -0.025372354 0.0007721341 -0.0014999211 -0.014555603 -0.01378349
0.0047653015 -0.0051364307 -0.01689127 0.014255645 0.03121514 0.00775472 0.011945676 0.015250065
0.0069963196 0.0076642665 0.0068265395 -0.05824741 -0.0023756924 -0.057958297 -0.00012814597 -0.038802944
-0.009535161 -0.04054082 -0.020698871 0.11990104 0.023193903 -0.005406804 0.008613103 -0.047357947
-0.007838874 0.058021728 0.019700663 -0.004153963 -0.027360396 0.017228797 -0.013334402 0.009082753
-0.035829276 -0.023163438 0.0108028725 0.06410312 -0.0061037014 0.11348498 0.01127905 0.032196507
0.0038097673 0.009705265 -0.04479227 0.037014507 -0.0029220304 0.018201256 -0.04512054 0.0048424667
-0.078399956 -0.009925418 0.019041141 -0.011096985 -0.023415295 -0.015768232 0.013332633 -0.016410967
-0.101667374 0.018357795 -0.0052686874 0.03998512 -0.0319303 0.017379511 0.07557034 0.03226393
-0.004339569 -0.01552409 0.012486855 -0.008934825 -0.0058417767 -0.017418554 0.012999498 -0.011686844
-0.06530191 0.010513468 -0.022083802 -0.016417922 0.013361299 0.0023205564 -0.02083584 0.01007099
0.0050003678 0.021124434 -0.021531885 0.03439621 0.008647423 0.0014075288 -0.015829414 0.05535091
0.051273912 -0.07738556 0.006154175 -0.089732364 -0.054142132 0.0073685464 -0.011151543 0.0122476695
00000000: 8179 86bd 6ecd e93b c989 35bc 3156 fb3b
00000010: 9ccf 3a3a 20ec 6f3c 6729 55bb d94d 873c
00000020: a9d1 44bb 78be b23c b369 4ebd 4764 303c
00000030: 7850 dcbc 2b4f 093d 3bf4 253b e8f1 58bb
00000040: 0318 ccbc d82a 5fbc 60ce c43b 2090 af3c
00000050: a031 80bc 06dc 0e3d 6162 edbc d8fd a83d
00000060: 8893 fa3b cc3f 0fbe 6ad4 cc3c 3148 163d
00000070: 047c 8a3c 26cb 1f3d 357f 033d 3bcb 28bc
00000080: d482 00bd 5f89 80bb 1172 98bc ae5e d0bd
00000090: c0ea 69bc abef a73c 422b b7bc ba87 b73b
000000a0: 0720 8c3c b3ad 19bc 0481 dbbb 6709 dc3b
000000b0: 6413 b6bb 34e9 bcbb aba3 973d 56bf 213d
000000c0: 8edf 0fbc 0af6 c53d 45e7 d73d 6c4b 4a3c
000000d0: 34f0 a7bc b7d7 863b 5084 cdbc ca05 9e3c
000000e0: d4bd 8d3a 20e5 013d e450 243c 5268 073e
000000f0: 41f7 0bbe ff63 aabb 89ef 66bc 06b0 a8ba
00000100: ce79 b5bc 1360 a33c 278e 323e e495 33bd
00000110: a4f5 c23c ac75 cdbc a5f6 5f3c c0b2 4cbd
00000120: 1e5e 72bb 59d5 77bd 5ca7 acbd 3f87 96bd
00000130: 1c16 c13c 37eb 37bb 5cd4 043b e2e2 5d3c
00000140: 98cd 5bbd a266 7c3c d36c 6dbc c9a9 5cbc
00000150: 7b9a 3dba 94e6 2bbc a0d3 133c c443 67bd
00000160: d4d4 f4bd 6303 a7bc ae3d e13c 78dd a6bc
00000170: 9bc6 ccbc c647 e03d 0787 fc3c bb80 25bd
00000180: 9c4e a1bb 92b8 67bb 7cb8 93bd 4c63 c3bc
00000190: bea6 683d 300d 6d3c 35d3 af3c 6194 9ebd
000001a0: fad8 3e3c 604d bfbc 88c7 2ebd 93d3 b7bc
000001b0: 9764 4c3d ae3f f5bc 038b cfbb ba3a 863c
000001c0: 2e4e c0bc 7212 7fbc 7439 03bc d931 403d
000001d0: ceb7 db3d 22f6 96ba d61a 9f3c c810 30ba
000001e0: ab20 65bc 2f0f 883c 5642 26bc a998 b73b
000001f0: aafd 2f3c acf9 d83a 7dbe 6a3d 77ea a33c
00000200: f999 f03c dddf 213c 7dba 4abc fe89 9abc
00000210: 3661 01bc 10d0 4abd 8620 88bd 05c7 493d
00000220: 3bc9 4dbd e928 ad3b 8c4d 20bd 52d2 213c
00000230: 825e 6a3b 338f a23b ebd3 c1bd a8ad b3bc
00000240: a493 e23a a116 1ebc dad9 1bbb 1ddc 0e3c
00000250: a8eb aabb 332a 80bc b785 6fbd 3d9e 1ebd
00000260: 1fc3 873a 6e48 803a b2bd 47bd afd9 cfbc
00000270: 0b69 4a3a 0099 c4ba a07a 6ebc 26d4 61bc
00000280: 3f26 9c3b 814f a8bb 905f 8abc 8290 693c
00000290: e5b6 ff3c 4e1b fe3b ccb7 433c 69db 793c
000002a0: 6241 e53b 8724 fb3b 2ab1 df3b d694 6ebd
000002b0: 81b1 1bbb ae65 6dbd ec5e 06b9 d6ef 1ebd
000002c0: 5d39 1cbc 220e 26bd ae90 a9bc ad8e f53d
000002d0: 2401 be3c 8f2b b1bb f91d 0d3c 68fa 41bd
000002e0: 9f6e 00bc 31a8 6d3d 4963 a13c f81d 88bb
000002f0: e922 e0bc 6823 8d3c 8978 5abc d4cf 143c
00000300: b8c1 12bd 40c1 bdbc 88fe 303c 7f48 833d
00000310: 8f01 c8bb d06a e83d c4cb 383c 7ce0 033d
00000320: 4aad 793b d502 1f3c 1978 37bd 869c 173d
00000330: 897f 3fbb cd1a 953c 51d0 38bd 8ead 9e3b
00000340: 2890 a0bd 389e 22bc 2bfc 9b3c 21d0 35bc
00000350: 6fd1 bfbc 612c 81bc 1e71 5a3c 4b70 86bc
00000360: fc36 d0bd 1663 963c f4a4 acbb 70c7 233d
00000370: 59c9 02bd 7a5f 8e3c 9fc4 9a3d 2f27 043d
00000380: f132 8ebb c158 7ebc aa95 4c3c 5f63 12bc
00000390: 606c bfbb 5bb1 8ebc d9fb 543c 2d7a 3fbc
000003a0: 02bd 85bd ae40 2c3c 17e9 b4bc e17e 86bc
000003b0: 5ae9 5a3c 7a14 183b ecaf aabc cb00 253c
000003c0: 20da a33b 260d ad3c a363 b0bc 0ae3 0c3d
000003d0: ecad 0d3c d47c b83a b0ac 81bc a3b7 623d
000003e0: 9804 523d 527c 9ebd f6a8 c93b 9ac5 b7bd
000003f0: 24c4 5dbd d973 f13b f6b4 36bc 73aa 483c

linear2.bias f4 [2]
0.1569194 0.24373502
00000000: 7baf 203e ac95 793e
