model/model.pth (torch, 24384 bytes, 4 tensors)

linear1.weight f4 [512, 8]
00000000: d8b2 a6be 8c8e c73c ded3 41be 72e8 5bbd
00000010: 1ebf 36bd c4d2 9bbe 7312 f8be 9d19 78be
00000020: 78ce 33be 4c9a 99be db2f ac3d 182b d2bd
00000030: 8986 b0bd 27c9 5a3d 0a34 5f3d be5c edbd
00000040: c474 90be 1f85 03be 658b 5b3d 14a0 02bd
00000050: 84c9 d2bc 8f48 15bd 4cd5 1f3e 4577 88be
00000060: 06f1 14bf 834c c8be 3956 d7be 9a9d bf3b
00000070: 790b 0e3c c5ea d5bd 404c 63be fd98 2abd
00000080: adaa 21bf e172 47bf 8684 97bf 444c ee3c
00000090: 074d ed3c 4ab3 dcbe 2cb6 d4be fc49 b03d
000000a0: 2bab debe 015e ecbe 8ce1 98be f8a9 de3c
000000b0: 46e6 ea3c be31 26bf 1898 93be 749b 2ebf
000000c0: 5f6d debe 1668 773e 8c19 f8bd 3a61 893b
000000d0: 5895 d23b b3d7 b0be c2fc 2abe 4a01 b9be
000000e0: d604 f3be cf66 47bf ad35 9dbf 71bb 293d
000000f0: fac3 873d 51d0 52bf fd23 c7be 77f6 cdbe
00000100: 248e 84bc a1e7 7fbe 6d37 253e b812 9bbe
00000110: 118f 81be 9879 7ebe 12a6 c4be 3fd5 af3e
00000120: 5588 fabd fc59 f8bc 5725 3e3d e6c4 53be
00000130: 8d41 33be af3f c8be 2ce4 413e 0240 df3a
00000140: 1400 0e3c 77fa 7fbd 5ebb bcbe bf96 383c
00000150: ddec 333c c4db 06be 86f1 9abe 0853 10bf
00000160: 25d4 02bf fdf8 e5be 17ec 80bf 5104 c83c
00000170: 654a b63c b9ba 95be 00f6 f4be 0ffc 6cbe
00000180: 9794 99be 09fa 36be c8f6 adbe 7d5f 9abd
00000190: 2d0a 7dbd c5e7 afbd 04db 00bd 5673 0d3e
000001a0: d358 14be ef38 92be ed10 6ebe 3876 b139
000001b0: f138 073b 7997 62be a438 423e a6e7 093e
000001c0: 0e9b 73bf 04f6 23bf 9a17 99bf b041 283e
000001d0: 12a4 543e 49a6 7ebf db95 d4be bb73 5cbf
000001e0: b682 1cbf a1ac b03c f270 46bf 31f6 dc3c
000001f0: cd8f e23c fe89 1fbf 08ac 96be 6565 943c
00000200: a23b 8cbd c267 3ebe 9001 95bd 0650 10be
00000210: 63a4 f2bd acb7 a6be 55b8 b4be 77e7 5b3d
00000220: 4068 493d 6e31 2dbe 71e3 e4bd aada 5cbe
00000230: f5a2 36be 16ad 17be a375 833e ea95 603e
00000240: 02c1 e3bd f2f6 b7bd 5732 ed3d d213 8cbe
00000250: b904 6cbe 3fdd 04be c7d0 7dbe 591f 93be
00000260: e858 1dbf 508d 88be 2517 26bf 92b2 2b3d
00000270: 67b7 253d 71f7 d4be 7fe1 f3be 40f6 1e3e
00000280: 5c1b b1be 5b00 8f3d c4c6 fabe e362 50bc
00000290: f668 4cbc d291 7cbe 28dd 06be 2ea0 333d
000002a0: a3f3 a83e b605 99be 6f7d 37bd 806a 24be
000002b0: 0983 0abe f650 883d f3af afbe b2e2 3cbe
000002c0: 99ad 6fbf 4aa4 46be 39b1 70bf 6668 3b3d
000002d0: b8e4 573d ff5a ebbe 3a94 f9bc 5366 f3bd
000002e0: ea26 4ebe 129b 21bf 24eb 2ebf f37b 63bc
000002f0: 3493 4dbc 8fa4 44be f721 0c3a 1046 8c3d
00000300: d120 1abe 0c61 4ebd fbe0 67be 09d6 40bd
00000310: 2994 21bd 6944 063e 9d21 02bd 282a f1bd
00000320: 8424 42be 7be1 a7be 3ca8 78bf f66d 253d
00000330: 23ad 1d3d b77d 93bf ed73 0e3e 292d 8bbe
00000340: e055 9cbd fb96 04bf ed3e 4bbf 5ce3 f23c
00000350: 1c26 f03c ffa5 1fbf 538e c7be 265c 3d3d
00000360: 89d6 aebe c963 f7be 0e10 44bf 50e6 e53c
00000370: f290 eb3c 2966 17bf 3578 4d3d f606 edbd
00000380: 58ff d9be bab3 b9be 5fd3 abbe 3782 b63c
00000390: 2162 ba3c 1ae4 f9be a3cd 9abd 5ee4 d23d
000003a0: fd58 0ebf c153 e6be b22d cdbe da56 e03c
000003b0: 2aa3 e63c d560 21bf 4ce2 bebe e3e7 abbe
000003c0: 6b46 efbe 475d 49be f379 6bbe 6d5f 53bd
000003d0: d471 24bd b4f5 1ebe b69a 8d3c 5061 663e
000003e0: 0907 c33c 955a 96be be68 72be 8c77 1ebe
000003f0: 3f20 8e3c 6431 01bf 5361 b33d fd9e c0be
-0.32558322 0.024359964 -0.18928477 -0.053688474 -0.044615857 -0.3043424 -0.48451576 -0.2422852
-0.1755923 -0.30000532 0.08407565 -0.10262126 -0.086194105 0.05341449 0.054492988 -0.11589955
-0.28214085 -0.1284375 0.053599734 -0.031890944 -0.025730856 -0.03644615 0.1560871 -0.26653495
-0.5818027 -0.39120874 -0.4205797 0.005847645 0.0086697275 -0.10445169 -0.22197056 -0.041649807
-0.63151056 -0.77909666 -1.1837318 0.0290891 0.028967394 -0.43105537 -0.41545236 0.086078614
-0.43489966 -0.4616547 -0.2985958 0.027180657 0.028674256 -0.6491965 -0.28826976 -0.6820595
-0.4344282 0.241608 -0.12114248 0.0041924985 0.0064264946 -0.34539565 -0.16697982 -0.36133796
-0.47464627 -0.7789125 -1.2282006 0.041438524 0.066291764 -0.82349116 -0.38894644 -0.402271
-0.01618106 -0.24990703 0.16134425 -0.3028772 -0.25304464 -0.24851072 -0.38407952 0.3434238
-0.122330345 -0.030316345 0.04642233 -0.2068058 -0.17505474 -0.39111087 0.18934697 0.0017032626
0.008667011 -0.06249472 -0.368617 0.011266409 0.010981766 -0.13169771 -0.30262393 -0.56376696
-0.51104957 -0.44916525 -1.0072049 0.02441612 0.022252271 -0.2924402 -0.47843933 -0.23143028
-0.29996178 -0.17868818 -0.33977342 -0.07537744 -0.061777283 -0.085891284 -0.03145887 0.13813528
-0.14487009 -0.28559062 -0.23248644 0.0003384815 0.0020633305 -0.22128095 0.18966919 0.13467273
-0.9515847 -0.64047265 -1.1960328 0.16431308 0.20765713 -0.9947248 -0.4152058 -0.8611409
-0.6113695 0.02156669 -0.7751609 0.026972862 0.02765646 -0.62319934 -0.29428124 0.018114755
-0.068473116 -0.18594268 -0.07275689 -0.14093027 -0.118477605 -0.32562006 -0.35296884 0.05368754
0.049171686 -0.16913387 -0.111761935 -0.21567789 -0.178356 -0.14812121 0.25675687 0.21932188
-0.11120798 -0.08982648 0.11581867 -0.27358872 -0.23048677 -0.12975024 -0.24786673 -0.28734854
-0.61463785 -0.26670313 -0.64879066 0.041918345 0.04045811 -0.41595033 -0.47632977 0.15523624
-0.34591186 0.0698249 -0.4897977 -0.012718889 -0.0124761965 -0.24665001 -0.13170302 0.04385393
0.3299838 -0.2988717 -0.044797357 -0.16056252 -0.13526548 0.06656067 -0.34313926 -0.18445852
-0.93624264 -0.19398609 -0.9402042 0.04575386 0.052708358 -0.45967862 -0.030466188 -0.11884751
-0.20132032 -0.63127244 -0.68327546 -0.013884532 -0.012547303 -0.19203399 0.00053456373 0.06849301
-0.15051581 -0.05038552 -0.22644417 -0.04707912 -0.039447937 0.13112034 -0.031770337 -0.11775619
-0.18959242 -0.32789215 -0.97131705 0.04038807 0.038495194 -1.152274 0.1391141 -0.27182892
-0.07633567 -0.5179288 -0.7939289 0.029649429 0.029315047 -0.62362665 -0.38975772 0.046230458
-0.34148052 -0.48318318 -0.76587 0.028063923 0.028755639 -0.5914026 0.050163466 -0.11573593
-0.42577624 -0.36269933 -0.335597 0.022278888 0.02275187 -0.4880684 -0.07558753 0.10297464
-0.55604535 -0.44985774 -0.40073925 0.027385164 0.028153975 -0.6303838 -0.37282026 -0.33575353
-0.46733412 -0.19664489 -0.22995739 -0.051604677 -0.040147617 -0.15523416 0.017285686 0.2249806
0.023807066 -0.29365984 -0.23672768 -0.15475291 0.01734936 -0.5046599 0.087587975 -0.37621298

linear1.bias f4 [512]
00000000: a638 2b3c 82e3 343e 4aad 3ebc ace0 3cbf
00000010: 616c 4fbf a0b7 42bf bf0d 4dbe 88ee 97bf
00000020: 1933 743e 8ae9 e0be 5fa1 bbbe 8eae 7dbf
00000030: ec99 423c e2fc c4be 01f2 5cbf 1c20 91be
00000040: 4746 9ebd 658e 15be b1c8 7abd b1a8 1fbf
00000050: 6b25 f2be b732 fdbe 98c0 70bf c652 85be
00000060: 3a0f a8bd b43e 3bbf a69e ddbe 6d73 48bf
00000070: 1004 17bf 0d21 58bf 6aca 00bf bbbb 90bd
00000080: f709 ddbe 6489 93be 913b fabe 3773 ecbe
00000090: b9a4 663e e047 00bf dbc2 4abe 50fe 9cbf
000000a0: 1c80 85bf 3c80 b9be 8b6f 03bd 28a1 31bd
000000b0: 61f1 d9be f7c2 853d e390 a8be 9c85 1dbf
000000c0: bcdd 36bd c84f f7be ed6e c33d 90f1 9dbe
000000d0: 9838 89bf 12b6 39bf 00b3 0b3e 89cb 02bf
000000e0: 15aa b0be 0a68 41bf 2fd4 67be ed85 d9bd
000000f0: 3e64 cdbd c10e 86bc 3f15 32bf 9a8f d7be
00000100: 5b78 03bf 0241 f9bd 6bec 32bf 78ed 1cbe
00000110: 890d ccbe bf96 bfbe 3553 08bf 6402 7fbf
00000120: 415a b8be 3400 12bf 4c83 98be df52 b0bd
00000130: 913a 27bf 60a3 043e 04b5 dd3c 4022 35be
00000140: c787 353d 4edb 15bf 1692 5cbf d06a 8fbf
00000150: 76fd 36bf bdf9 2abe 1fe3 88be c35f d6bc
00000160: 47d8 bcbf 2a1d 8ebe 41df 3fbf 5d00 52bf
00000170: 9906 10be a89d 71bf 2a3f fabe 81fd 93bf
00000180: 3547 a6be bfd6 663e a428 f5bd b142 92be
00000190: 7377 9abf 6a56 39be 6410 3abe f7cb 19bf
000001a0: 39b8 dbbe 8700 91be 7809 c8bd 15d1 26bf
000001b0: b324 3b3d 8539 a93d 3762 7bbe 8ab2 a6bd
000001c0: 98e8 2cbf 92bb a0be dde8 e0be cb70 13bf
000001d0: 16ca ddbe 4c06 bebe 6ffc 63bf e53b 9cbe
000001e0: 8ded 82bf 6aaa 793d 36cf 09bf 7895 f13d
000001f0: fb63 72be 7470 d3be 9596 e2be 280d 0fbf
00000200: 3c01 aebf e5ba 6abf a861 5dbf 8e00 5dbf
00000210: a8d4 efbe b870 c6be ffb9 39bf 9a66 b33d
00000220: 8a52 d8be 056d a5bd 54a2 bdbe 3cec b9be
00000230: 6a07 68bf 05fb 013e da94 cfbe 4c3b 97bf
00000240: fd63 013e 87a4 bebe d870 51be 9369 96be
00000250: 503f 07bf 3f3f 43bf 4e8f b0be 7827 0cbf
00000260: 881a c5bd 4462 c5be 3f9d 51bf 9236 3dbf
00000270: 6dc0 4dbf 4eea fcbe e83f 6bbe 0570 32bf
00000280: 3882 ffbe 845a 85bd 30ff b5be daae 41bf
00000290: 8645 12bf 1a43 afbe 6870 1fbe 789c 5d3e
000002a0: c47c ab3c 741e 95bf 84b3 093e f5ed f03d
000002b0: 6b14 143d 4ce6 853e 0c71 0fbf c6ce 91be
000002c0: 1c17 a6be 20f9 09be 2fa2 673d d200 1abf
000002d0: ec42 67be b8e1 6bbf fd44 b2be 0a75 c7be
000002e0: 6bc5 273e 3284 9ebf 5c1b 66bf 0777 c8be
000002f0: 467e a6bf 6cc5 5fbd a963 23be a22f 2ebe
00000300: 10d2 a5be 2da2 adbe 9634 b3bf 0a6d 60bf
00000310: 52a9 1ebf 8e0b b0bf 6edd 66bf a96f 563e
00000320: a635 03bf 2c24 0bbf a097 8c3d 9342 4ebf
00000330: 67db 7cbe aef6 bbb9 7ba4 01be 6b8d c1bf
00000340: 1276 5cbf 092f 77bf c34d 47bf f98a dabd
00000350: 5418 5abf 8184 5ebf a29b 8fbe ece3 c23d
00000360: 3684 1ebf 5f98 ac3d bb80 23bd 1d41 67be
00000370: 9080 40bf 3fee fd3c e208 b33d b336 15bf
00000380: 9f3b 2abf 4e8d c3be d9be 3e3e b035 43bf
00000390: 233b 8dbf 4249 e0be 0930 dbbe 2c87 c43c
000003a0: 9dbe 6ebf 3ffa 59bf 966c 8abf 75d9 2f3e
000003b0: 99de d0be a42a 22bf 1ab0 2ebf ffca 8abe
000003c0: aba9 93be 3b97 aabf b087 f4be c3ad c7be
000003d0: d316 84bf 984b 9bbe b227 2ebf 1efb 3bbf
000003e0: 0827 a1be f876 01bf a4ef d7bf e750 86bf
000003f0: cc1a 22be 55b6 44bf 6435 8fbe 89f8 6bbf
0.010450518 0.17664912 -0.011637995 -0.7378032 -0.8102475 -0.7606144 -0.20024775 -1.1869669
0.23847617 -0.43928176 -0.36646554 -0.99094474 0.011877518 -0.38474184 -0.8630677 -0.2834481
-0.07728248 -0.146051 -0.06122655 -0.6236678 -0.47294173 -0.49452755 -0.94043875 -0.26039714
-0.08206029 -0.7314255 -0.43285102 -0.78301126 -0.58990574 -0.8442543 -0.5030886 -0.07067057
-0.43171665 -0.28815758 -0.4887357 -0.46181652 0.22523774 -0.5010967 -0.19800894 -1.226511
-1.0429721 -0.36230648 -0.032088798 -0.04336658 -0.4256697 0.06531327 -0.3292304 -0.61531997
-0.044645056 -0.48303056 0.09542642 -0.3084836 -1.0720396 -0.7254344 0.13642502 -0.5109182
-0.34504762 -0.75549376 -0.22639535 -0.106212474 -0.10028885 -0.016364457 -0.6956367 -0.42101747
-0.5135552 -0.121706024 -0.69891995 -0.15324962 -0.39854077 -0.37419698 -0.53251964 -0.9961302
-0.36006358 -0.5703156 -0.29787672 -0.086095564 -0.6532374 0.12952948 0.027063854 -0.17688847
0.04431894 -0.5853776 -0.8616041 -1.1204472 -0.714805 -0.1669683 -0.2673578 -0.02616871
-1.4753503 -0.27756625 -0.74950033 -0.82031804 -0.14065017 -0.9438119 -0.48876315 -1.1561738
-0.32476202 0.22542857 -0.11970642 -0.28566507 -1.2067703 -0.1809937 -0.18170315 -0.6007685
-0.42913988 -0.28320715 -0.09767431 -0.65162784 0.045689296 0.08262924 -0.24549185 -0.081395224
-0.6754241 -0.31393105 -0.4392766 -0.57593983 -0.43318242 -0.3711418 -0.8905706 -0.30514446
-1.0228745 0.060953535 -0.53831804 0.11796087 -0.23670952 -0.41296732 -0.4425551 -0.5587945
-1.3594127 -0.9169143 -0.86477137 -0.8632897 -0.4684193 -0.38757873 -0.7254943 0.08759804
-0.42250472 -0.080774345 -0.3703791 -0.36313045 -0.9063631 0.12693413 -0.40543252 -1.1814971
0.12635799 -0.372349 -0.20453203 -0.29377422 -0.5283098 -0.7626838 -0.34484333 -0.54747725
-0.09624201 -0.38551533 -0.81880563 -0.7391139 -0.80371743 -0.4939751 -0.22973597 -0.6970218
-0.49904037 -0.06511405 -0.35546255 -0.7565743 -0.57137334 -0.34230882 -0.15570223 0.2164172
0.020933516 -1.1649919 0.13447386 0.11764137 0.036152285 0.26152265 -0.5603187 -0.28478068
-0.32439506 -0.1347394 0.056551155 -0.601575 -0.22584122 -0.92141294 -0.3481826 -0.3895648
0.16383903 -1.2384093 -0.898855 -0.3915331 -1.3007286 -0.054631636 -0.15955986 -0.17010358
-0.32386827 -0.33912793 -1.4000423 -0.8766638 -0.6197711 -1.3753526 -0.90181625 0.20941032
-0.51253736 -0.5435207 0.06864858 -0.80570334 -0.2469307 -0.0003585121 -0.126604 -1.5121282
-0.8611766 -0.96556145 -0.7785303 -0.10671038 -0.8519337 -0.86920935 -0.28048426 0.09516129
-0.6192049 0.084275 -0.03991769 -0.22583432 -0.7519617 0.030997394 0.08741929 -0.5828659
-0.66497225 -0.38193744 0.1862749 -0.76253796 -1.1033672 -0.4380589 -0.42810085 0.023990236
-0.932596 -0.8514747 -1.0814388 0.17172797 -0.4079483 -0.63346314 -0.6823746 -0.27108
-0.28840384 -1.3327402 -0.4775977 -0.38999757 -1.0319465 -0.3033111 -0.6802932 -0.7343005
-0.3147509 -0.50572157 -1.6870008 -1.049344 -0.15830535 -0.76840717 -0.2797042 -0.9217611

linear2.weight f4 [2, 512]
00000000: fe9a 203b c9d6 483c 54e2 7a3c 021e c03a
00000010: d408 5cbc 8dd5 a8bb daa1 83bc 6b6f 91bc
00000020: f6ab 173b cf74 8dbc 1e22 0bbc efb4 71bc
00000030: 778b 35bc 4f4f c6bb ed4a 003d 3008 bcb9
00000040: 244f 0cbb 0583 c9bc de99 dbbb 2142 34bb
00000050: 84b0 5fb9 7aeb 973a 2868 43bc 36a0 11bc
00000060: 1565 efb9 e927 b4ba 4d32 45bc 8ed2 9cbc
00000070: 84bf 59bb 0d25 753a 03d3 63bc 2c57 13bd
00000080: 8507 b9ba 56b1 95bc ba54 3dbb 9f71 42bb
00000090: 44bc 1738 d43e 3bbc 32a0 dd39 6c5e 68bc
000000a0: 81ab bbbc 61ec d43b 6807 79bc 2403 f6b9
000000b0: 023c 0dbb 6c60 d1bd 6ce1 8abc d8b0 083b
000000c0: 804b b5bb 9d94 9ebb 8dbc 793a 02e6 12bc
000000d0: fd00 12bd ceec 28bc 48e1 8abc 09c4 fcbb
000000e0: d145 543d 44d3 63bc 7814 b6bb 1856 dcbb
000000f0: 4425 5fbb 07a1 fd3c 31df 9c3c 0b14 73bb
00000100: 42a5 8ebc 9b41 fbbc 472c 62bc fb6c 19bc
00000110: b71b 7b3d b504 273b b44b 92bc dd7f 353d
00000120: 1737 b83a 731a 2ebc 9bcb 98bc 3560 bb3d
00000130: 9d2a c8bb e302 c43a dd08 4fbb abd1 75bc
00000140: 9f87 d23c 3763 223b 044d e3bb d078 96bb
00000150: d297 54bc 524b 41bb c9d1 803d 479b 6dbb
00000160: bbfc 78bc 591e 19bd bcb6 54bc 1836 533b
00000170: f1d9 f23b ce5d 82bc e3b6 053a b88f dabb
00000180: d187 34bc 51e1 033e 6caf 093a bbcf c2bc
00000190: 7776 bf3b b495 0cbd 9049 dbba a873 34bb
000001a0: 57a7 263c 24f1 ccbc 631c 03bc b965 c83b
000001b0: e7b0 48bc d28f 56bc 55a1 0ebd f745 863b
000001c0: c93d fdbb f10a 263d 6c14 cebd 7917 35bc
000001d0: 8adb 87bd 577b 3fbd ae11 fd3b 9e35 bebb
000001e0: 6f4f 133d 9e9d 8239 b971 88bc 8ed8 d9bc
000001f0: 6660 e8bb 9bd9 d8bb 108b a6bc 526b 5cbc
00000200: 8d70 b83c e755 dcbb 7a2a 6dbb 0747 bcbc
00000210: 61a5 02bc 53d3 f3bb 202b 39bc 673a 0b3a
00000220: 50f7 383c a24d aa3c 75ee 48bc 43bf 66b9
00000230: fedd 6cbc f2e4 8d3a 00e0 1dbc ec5d a5bb
00000240: 661e 9bbb f435 f6bc 013d 30bd 7238 86bb
00000250: e9c4 bbbb 4ed5 fdbc 217f 0e3a c009 3dbc
00000260: 5d08 223c 04ec bbbc da4c 53ba 54b3 fcbb
00000270: f819 c7bb 144f 0abc 69ac febc 4a84 243b
00000280: eebc 853b 11ea 0a3b 2c8f 8fbc 4b82 2e3d
00000290: e063 58ba 097f 8f3c 8150 5abd c277 7fbc
000002a0: 6b7f 8d3b 0513 9ebb 0765 e83c b698 53bb
000002b0: 8723 c2bc 968d e83c 1468 23bc b6aa 6339
000002c0: 40b3 eabb dfc1 62bb cae1 2f3b 89cd ecba
000002d0: 7e0c 03bb 860c aebc 8de0 10bc d243 60bb
000002e0: 20bc b13b b70a 77bc 67ee 1fbb 39fb e0ba
000002f0: b00f 6bbc 71b6 9ebc d7db 543b 656e 91bb
00000300: b2b3 9cbc 4fa1 34bc 2874 c2bb bb0c 49bc
00000310: 8e65 2fbb 01c9 6e3c 696f 5dbc 2953 16bc
00000320: 2c48 e8bb 9a70 acbc 04d2 74bc 2c6e 82bc
00000330: d207 333a 902d 263a 8211 4c3c 55ae 54bc
00000340: 4e10 b6ba 1858 8dbb c9d8 393d 1539 92bc
00000350: 6d90 b5bb 83db 07bb c8be 9a3c afb1 88bc
00000360: c425 87ba dfb5 c5bc 85e3 dabb 143b b4bc
00000370: 904c 12bc 045d 88bb 7cde 9dbb b0a2 dfba
00000380: d699 563d f10a 94bc ec0e 1038 8681 353d
00000390: a7d1 60bb 0891 8cba d3f1 f3bc bd64 7cbc
000003a0: 7b5a bdbc 3ff9 ca3b 3d8c ccbc 7f2d 18bb
000003b0: e266 bcbc e0a2 edbc b8f1 c2ba a20e 52bc
000003c0: aa82 89bc 5118 9abc 913e c0bb 8fbc 6dbd
000003d0: 9782 1ebd 7fc5 5cbb 2b16 2ebc 04d6 25bc
000003e0: f09d 47bb 4d51 db3d b49e 4ebc 29bd 99ba
000003f0: e259 81bd 30e4 943b 12de 6ebc 9bc5 a8bc
0.0024506445 0.01225824 0.01531275 0.001465738 -0.013429839 -0.0051524104 -0.016068388 -0.017753324
0.0023143268 -0.017267613 -0.008492021 -0.014752611 -0.011080614 -0.006051935 0.031321455 -0.00035864254
-0.0021409476 -0.024598608 -0.006701692 -0.0027505236 -0.00021332694 0.0011590563 -0.011926688 -0.008888295
-0.00045660944 -0.0013744804 -0.012035918 -0.019143369 -0.0033225724 0.00093515293 -0.01390529 -0.035971805
-0.0014116621 -0.018273037 -0.0028889612 -0.0029669774 3.617654e-05 -0.011428554 0.0004227176 -0.014182668
-0.022908928 0.006497905 -0.01519952 -0.00046923116 -0.002155066 -0.10223469 -0.016953193 0.002085736
-0.005532682 -0.0048394934 0.00095266924 -0.008965971 -0.035645474 -0.010310365 -0.016953126 -0.007713799
0.051824395 -0.01390535 -0.0055566393 -0.0067241304 -0.0034049312 0.030960573 0.019149395 -0.0037090804
-0.017412785 -0.030670932 -0.013804502 -0.009364362 0.061305728 0.0025484983 -0.017858364 0.044311393
0.0014054504 -0.010626423 -0.018651774 0.091492094 -0.0061085955 0.0014954474 -0.0031590976 -0.015003602
0.025699435 0.0024778375 -0.006936671 -0.0045920387 -0.01297565 -0.0029494357 0.06290013 -0.0036255883
-0.015196974 -0.037382457 -0.01298302 0.0032228287 0.0074112345 -0.01591387 0.00051007996 -0.0066699646
-0.011018709 0.1287892 0.0005252275 -0.023780694 0.0058429795 -0.034322456 -0.0016730297 -0.0027534757
0.010171733 -0.025017329 -0.008002373 0.006115642 -0.012249208 -0.013095813 -0.034821827 0.004097696
-0.0077283126 0.04053778 -0.10062489 -0.01105296 -0.06633671 -0.046748485 0.007723055 -0.0058047315
0.035964426 0.00024912966 -0.01665579 -0.02659252 -0.0070915697 -0.0066177375 -0.020329982 -0.0134533215
0.022514606 -0.0067241075 -0.0036188648 -0.022983087 -0.007974 -0.0074409633 -0.011301786 0.0005311132
0.011289433 0.020788971 -0.012263884 -0.0002200576 -0.014457224 0.0010825677 -0.009635925 -0.0050465968
-0.0047338484 -0.030055024 -0.043026928 -0.0040960843 -0.0057302606 -0.0309855 0.0005435814 -0.011537969
0.009889689 -0.02293969 -0.0008060463 -0.0077118073 -0.0060760938 -0.008441705 -0.031088071 0.0025103264
0.00408136 0.0021196643 -0.017524324 0.042604726 -0.00082546286 0.01751663 -0.05329943 -0.015592517
0.004318168 -0.0048240446 0.028368486 -0.0032287068 -0.023698581 0.028387826 -0.009973545 0.00021712002
-0.0071624815 -0.003460042 0.0026837462 -0.0018066625 -0.001999646 -0.021246206 -0.0088426 -0.0034220112
0.0054240376 -0.015078238 -0.0024403573 -0.0017164714 -0.014347002 -0.019374104 0.0032479668 -0.004438209
-0.019128654 -0.011024787 -0.005934257 -0.012271102 -0.0026763412 0.01457429 -0.013515332 -0.0091751
-0.0070886817 -0.021049786 -0.01494265 -0.015921675 0.00068294734 0.0006339187 0.012455346 -0.012981017
-0.0013890357 -0.00431348 0.045372758 -0.017849484 -0.0055408985 -0.0020730204 0.0188898 -0.016686289
-0.0010310938 -0.024134574 -0.0066799545 -0.022000827 -0.008929387 -0.004161479 -0.004817782 -0.0017062034
0.052392803 -0.018071624 3.4346172e-05 0.044312976 -0.003430465 -0.0010724375 -0.029778397 -0.015404877
-0.023114434 0.006194263 -0.024969215 -0.0023220477 -0.022998277 -0.029008329 -0.0014873063 -0.012820872
-0.016785938 -0.018810423 -0.0058668335 -0.05804115 -0.03869876 -0.0033687053 -0.010625402 -0.010121826
-0.0030459128 0.10708866 -0.01261108 -0.0011729348 -0.06315972 0.0045438036 -0.014579313 -0.020602038

linear2.bias f4 [2]
00000000: b154 433e 5f5c 2d3e
0.19075276 0.16929768
