model/model.pth (torch, 16192 bytes, 4 tensors)

linear1.weight f4 [256, 11]
0	0x3e98a7b3	0.29815444
1	0xbe6710f5	-0.22565062
2	0x3e4e0d90	0.20122361
3	0xbd2537b8	-0.04033634
4	0x3d6bf5a8	0.057607323
5	0xbe585458	-0.21125925
6	0x3d5d5533	0.05403633
7	0xbe01d1c2	-0.12677673
8	0xbd96d5bd	-0.07364986
9	0x3dcc9eec	0.099912494
10	0xbcdd5ed9	-0.027022766
11	0x3e5e9886	0.2173787
12	0x3e62f2cc	0.22162932
13	0x3d8f123e	0.06985901
14	0xbeb0d3fe	-0.34536737
15	0xbdea58dc	-0.1144273
16	0xbdfefb0d	-0.12450228
17	0x3d8308bf	0.063981526
18	0x3df1cfcb	0.118072115
19	0xbeb0b3ce	-0.3451218
20	0xbe87b7e9	-0.265075
21	0xbea28dd4	-0.3174883
22	0x3e083233	0.133004
23	0xbe0a8309	-0.13526548
24	0x3e20f7d9	0.15719546
25	0xbe257e36	-0.16161427
26	0xbe44c209	-0.19214644
27	0x3e7e0813	0.24807768
28	0xbe072c54	-0.13200504
29	0x3de1ebf4	0.110313326
30	0xbe726a6a	-0.23673406
31	0xbe7de888	-0.24795735
32	0x3e8782d7	0.2646701
33	0x3da510fc	0.0805988
34	0x3d90e728	0.070753396
35	0x3e42eff2	0.19036844
36	0xbdc07282	-0.09396841
37	0x3e0e7650	0.1391232
38	0xbe953cfd	-0.29148093
39	0xbcd8bbef	-0.026456801
40	0xbe6086b2	-0.21926382
41	0xbe52118c	-0.20514506
42	0xbd04013b	-0.032227736
43	0xbe7d0a89	-0.2471105
44	0x3de89889	0.11357219
45	0x3da2d62b	0.079510055
46	0x3e9446e8	0.28960347
47	0xbe8e1bc8	-0.2775557
48	0xbd90ead3	-0.07076039
49	0x3da6b34b	0.08139666
50	0xbd86341b	-0.06552907
51	0xbcedc4f6	-0.029024582
52	0x3de8a9ed	0.11360536
53	0xbbdcbbc0	-0.0067362487
54	0xbe860ddb	-0.26182446
55	0xbe360e2a	-0.1777884
56	0x3e79c816	0.24392733
57	0xbdbf635e	-0.09345125
58	0xbc2af087	-0.010433323
59	0x3df3ece3	0.11910417
60	0x3e06acd7	0.1315187
61	0x3e45eef2	0.19329432
62	0x3e417ad4	0.18894511
63	0xbd3805e8	-0.044927508
64	0xbe2c86b2	-0.16848257
65	0x3e006514	0.12538558
66	0x3e50aa85	0.20377548
67	0xbd28da97	-0.04122409
68	0xbd9e15fc	-0.07719037
69	0xbe84c626	-0.25932425
70	0xbe8e5dea	-0.27806026
71	0x3e51c449	0.20485033
72	0xbe135740	-0.14388752
73	0x3e45bf71	0.1931131
74	0x3e0f2719	0.13979758
75	0x3e12eb75	0.14347632
76	0x3df2333a	0.11826177
77	0xbe9a3c41	-0.30124095
78	0x3e6a4b27	0.22880231
79	0xbe95b954	-0.29242957
80	0x3dd9facc	0.10643539
81	0xbe9429b5	-0.2893807
82	0xbe3b3e3a	-0.18285456
83	0xbe436dd8	-0.19084871
84	0x3e853d1b	0.26023182
85	0xbe624c4c	-0.22099417
86	0xbdfd7a59	-0.123768516
87	0xbe3c5785	-0.18392761
88	0x3e8b7577	0.27238056
89	0xbe337563	-0.17525248
90	0xbe3156b0	-0.17318225
91	0xbc1ef93f	-0.00970298
92	0xbd87c0e0	-0.06628585
93	0xbc48d023	-0.012256655
94	0xbe14c762	-0.14529184
95	0x3db2cbf3	0.087303065
96	0xbe86baed	-0.26314488
97	0xbc5e7b31	-0.013579176
98	0xbdff23a6	-0.12457971
99	0x3e63c0c2	0.222415
100	0x3e97c947	0.2964575
101	0x3d0d2b43	0.034465086
102	0xbedbb939	-0.4291475
103	0x3d23a98c	0.039956614
104	0xbcf0e04b	-0.029403826
105	0x3d551c68	0.052029043
106	0xbe8c12a3	-0.2735797
107	0xbe03f66a	-0.12886968
108	0xbde824ae	-0.11335121
109	0xbd39ef85	-0.04539444
110	0xbe9253fb	-0.28579697
111	0xbe5f061d	-0.21779676
112	0xbdf285ce	-0.118419275
113	0x3e00489d	0.125277
114	0xbaa08e74	-0.0012249486
115	0x3e418bff	0.1890106
116	0xbdaf2094	-0.08551136
117	0xbea2d7e2	-0.3180533
118	0xbe1fcc72	-0.15605333
119	0xbd686847	-0.05674007
120	0xbd9e8799	-0.07740707
121	0x3e98018d	0.29688683
122	0xbe783113	-0.2423747
123	0xbe882298	-0.26588893
124	0xbe98b65e	-0.29826635
125	0xbddf55a5	-0.10905007
126	0x3dda1902	0.10649301
127	0xbe56a012	-0.209595
128	0x3d9375d0	0.07200205
129	0xbe59ae5d	-0.2125792
130	0xbac4d681	-0.001501754
131	0x3c01ab0b	0.007914315
132	0xbd10bec4	-0.03533818
133	0xbe247630	-0.1606071
134	0xbdace1cc	-0.08441505
135	0x3dd20f3b	0.10256811
136	0xbdb51546	-0.08841948
137	0x3dbd1203	0.09231951
138	0x3cac42fd	0.021028036
139	0xbdda90cf	-0.10672151
140	0x3e9b705f	0.3035917
141	0x3e3328ae	0.17495987
142	0xbd3d5e67	-0.046232607
143	0x3daf9e22	0.08575083
144	0x3e98f5f7	0.29875156
145	0x3e658ecb	0.22417752
146	0x3c8a1ec3	0.016860371
147	0x3b6f9570	0.0036557578
148	0xbd55dbfa	-0.05221174
149	0xbd3f8c90	-0.04676491
150	0xbe40bc04	-0.18821722
151	0x3e2330c3	0.1593657
152	0xbe945978	-0.2897451
153	0x3c052372	0.008126127
154	0x3e8d274d	0.27569047
155	0xbe174ff4	-0.14776593
156	0xbe51177b	-0.20419113
157	0x3e1b245c	0.15150589
158	0x3df2a60e	0.11848079
159	0xbe7e543e	-0.24836823
160	0xbdfb95ea	-0.12284453
161	0xbebed15e	-0.3726911
162	0x3e5f6b57	0.2181829
163	0x3e040eb5	0.12896235
164	0xbe2b1251	-0.16706206
165	0xbe88d1f1	-0.26722673
166	0x3d62c39a	0.05536232
167	0xbd957e1a	-0.072994426
168	0x3e525617	0.20540653
169	0xbe8d1e16	-0.27562016
170	0x3d79a54a	0.060948648
171	0xbe77bad5	-0.24192365
172	0x3d12527d	0.0357232
173	0xbd5ef8ec	-0.05443661
174	0x3e5184c2	0.204608
175	0xbe15ea3d	-0.14640136
176	0x3e1ddf70	0.15417266
177	0xbe0b271f	-0.13589142
178	0xbde38158	-0.11108655
179	0xbea20d37	-0.31650707
180	0xbc693b39	-0.014235311
181	0x3e29d4d8	0.165851
182	0x3e36626c	0.17810982
183	0xbecc1da3	-0.3986636
184	0xbeaedfa6	-0.34155005
185	0x3e650492	0.22365025
186	0xbd5402d0	-0.051760495
187	0xbd4b5022	-0.049636967
188	0x3df11e2d	0.11773334
189	0xbb7aca04	-0.0038267383
190	0x3e1e8a7d	0.15482517
191	0xbdd880ed	-0.10571466
192	0x3d34bd1a	0.044125654
193	0xbd1a0734	-0.037604526
194	0xbd2c1f65	-0.042022128
195	0x3e4b90d8	0.19879472
196	0x3da3f769	0.08006174
197	0x3e7e17d5	0.24813779
198	0xbd5994a4	-0.05312027
199	0xbe433292	-0.1906226
200	0x3e70b7b1	0.23507573
201	0xbe78aaa9	-0.24283852
202	0xbdff5533	-0.12467422
203	0x3d252036	0.040313922
204	0xbcf2224a	-0.029557366
205	0x3db50260	0.088383436
206	0xbdecb9ef	-0.115589015
207	0xbe8a7373	-0.27041206
208	0xbe8a54a1	-0.27017692
209	0x3e88e123	0.26734266
210	0x3e7d2ff8	0.2472533
211	0xbe081510	-0.13289285
212	0xbd5a0a69	-0.053232584
213	0xbe8a3d60	-0.2699995
214	0xbe93f382	-0.2889672
215	0x3d443c4b	0.047909062
216	0xbe2b7f9d	-0.167479
217	0xbe7135f2	-0.23555735
218	0x3e010000	0.12597656
219	0x3e955088	0.29163003
220	0x3ca91714	0.020640887
221	0x3e44f3cc	0.19233626
222	0xbdefd72b	-0.11710962
223	0xbe64ddf6	-0.22350296
224	0x3da3311c	0.07968351
225	0x3d0122e6	0.031527422
226	0x3d980e0f	0.074245565
227	0xbe94f7e1	-0.29095367
228	0xbd55abed	-0.052165914
229	0xbe4fb6dd	-0.202846
230	0xbdf32d0b	-0.11873826
231	0x3d4ac050	0.04949981
232	0xbd3bccda	-0.04584966
233	0xbe94fc59	-0.29098776
234	0xbddc8758	-0.10768002
235	0xbe893f5f	-0.2680616
236	0xbe64cb76	-0.22343239
237	0xbde6c860	-0.11268687
238	0xbd91e492	-0.071236745
239	0xbe964aa8	-0.29353833
240	0x3d9b548b	0.07584485
241	0x3d861663	0.06547239
242	0xbe390fd2	-0.18072441
243	0x3d8e2208	0.06940085
244	0x3e7e0b6c	0.24809045
245	0xbe1f45ae	-0.15553924
246	0xbe3a0aad	-0.18168135
247	0xbd8e54af	-0.06949746
248	0xbe2b32c9	-0.16718592
249	0x3e49df13	0.19714002
250	0xbca9f693	-0.020747459
251	0xbd8453f8	-0.06461328
252	0xbe8b42c5	-0.2719938
253	0x3d1aaff9	0.037765477
254	0xbd0906b7	-0.03345367
255	0x3e1b80b6	0.15185818

linear1.bias f4 [256]
0	0xbd5a200b	-0.053253215
1	0x3e613c33	0.2199562
2	0x3e43711c	0.19086117
3	0xbd244c62	-0.040111907
4	0x3e980301	0.29689792
5	0x3e80d915	0.2516562
6	0xbe74f1da	-0.23920384
7	0xbd4a5377	-0.049396005
8	0xbdb0ae96	-0.086270496
9	0xbe8041dc	-0.25050247
10	0x3c1b4ca0	0.009478718
11	0x3e450b2d	0.19242544
12	0x3e4e458c	0.20143718
13	0xbe0e569e	-0.1390023
14	0xbe063dc2	-0.13109496
15	0xbe2ebdee	-0.1706464
16	0xbcd04bfe	-0.02542686
17	0x3e135d9c	0.14391178
18	0x3d0119b0	0.031518638
19	0x3e21ef53	0.15813951
20	0xbd8aa4d0	-0.06769717
21	0xbe454aa5	-0.19266756
22	0xbbc6b9b5	-0.0060646185
23	0xbd8624f4	-0.06550017
24	0xbe846fa3	-0.25866422
25	0xbe5766ed	-0.21035357
26	0xbe69d755	-0.22836049
27	0x3e2a202b	0.16613834
28	0xbe3e26f6	-0.1856955
29	0xbe173f41	-0.14770223
30	0x3c9d0468	0.01916714
31	0xbdad72a6	-0.08469133
32	0xbe543269	-0.20722355
33	0xbec28b84	-0.37997067
34	0x3df45839	0.1193089
35	0x3e2828d6	0.16421828
36	0xbbbf2a48	-0.0058338977
37	0xbd50ae9c	-0.05094777
38	0xbe34d57a	-0.1765956
39	0xbe624622	-0.22097066
40	0x3dfef09b	0.124482356
41	0xbe4c2a0f	-0.19937919
42	0xbe77f608	-0.24214947
43	0x3e526e04	0.2054978
44	0x3ddf7d9d	0.10912631
45	0xbe84fcbb	-0.25974068
46	0xbe2904b9	-0.16505708
47	0xbe80ec08	-0.25180078
48	0x3e84143f	0.25796697
49	0x3d456a07	0.04819682
50	0xbeab50eb	-0.33460173
51	0xbdb8a631	-0.090160735
52	0x3e2362bd	0.15955634
53	0x3cc16b80	0.02361083
54	0xbd6da37e	-0.058017246
55	0xbea46ffc	-0.32116687
56	0xb9496232	-0.00019205434
57	0xbe4111f2	-0.18854502
58	0xbb02a0a0	-0.0019932166
59	0x3e68699f	0.22696541
60	0x3dc2cff4	0.0951232
61	0x3e172d6a	0.14763418
62	0xbe89dbac	-0.2692541
63	0x3b3f5704	0.0029196152
64	0x3e47cf80	0.19512749
65	0xbe8f3288	-0.2796824
66	0xbe7c83a8	-0.24659598
67	0xbd28b86e	-0.04119151
68	0x3e37facd	0.17966767
69	0xbe6c2965	-0.23062666
70	0xbe5269e7	-0.20548211
71	0xbccba047	-0.0248567
72	0x3e581547	0.21101867
73	0xbe92c47d	-0.28665534
74	0x3dded5ca	0.10880621
75	0xbd90c288	-0.07068354
76	0xbe12e4c6	-0.14345083
77	0x3c572c94	0.013133187
78	0xbecb0078	-0.39648795
79	0x3c647d0d	0.01394583
80	0xbe9a003f	-0.30078313
81	0x3e581e8b	0.21105401
82	0x3e84765b	0.25871548
83	0xbca17c39	-0.019712554
84	0xbe956448	-0.2917807
85	0x3dc61834	0.09672585
86	0xbd0e5423	-0.034748208
87	0xbebdb791	-0.37054113
88	0x3d0a3796	0.033744417
89	0xbb34b7e7	-0.0027575435
90	0xbe8138fe	-0.25238794
91	0xbd087b7d	-0.033320893
92	0x3df990e9	0.121858425
93	0xbe4cad46	-0.19987974
94	0xbeae01a2	-0.3398562
95	0xbeace149	-0.3376563
96	0x3e33a7c3	0.17544465
97	0xbe62aca8	-0.22136176
98	0xbe0a7bfc	-0.13523859
99	0x3e6ad47a	0.22932616
100	0xbda67fa9	-0.08129818
101	0xbdd77976	-0.10521214
102	0xbd0e2640	-0.034704447
103	0xbe6e35d2	-0.23262718
104	0x3e2bdb1b	0.16782801
105	0x3e61998c	0.2203123
106	0x3e0ba4d0	0.1363709
107	0xbe544a30	-0.20731425
108	0xbe93c387	-0.28860113
109	0x3e867259	0.26259115
110	0xbe11f745	-0.14254482
111	0xbd9dd081	-0.077057846
112	0x3d8fc231	0.07019461
113	0xbde08d47	-0.109644465
114	0xbe08a9ba	-0.13345996
115	0xbdc918c3	-0.09819176
116	0x3c081ba8	0.008307375
117	0x3e890714	0.26763213
118	0x3e2f8dfd	0.17144008
119	0xbd639c16	-0.055568777
120	0x3e0ab38e	0.13545057
121	0xbdd2c8e1	-0.10292221
122	0xbe9890fe	-0.2979812
123	0xbcccb7cc	-0.024989985
124	0xbe8e2a79	-0.2776678
125	0xbe1d90a6	-0.1538721
126	0xbe5f9b03	-0.21836476
127	0xbe831cf7	-0.25608036
128	0xbe93d0b9	-0.2887018
129	0x3ca61bba	0.020276893
130	0xbdb7bc8f	-0.089715116
131	0x3e6f2a9f	0.23356102
132	0x3e278b96	0.16361842
133	0x3cbf910b	0.023384592
134	0xbdfb704c	-0.12277278
135	0xbe165fd0	-0.14684987
136	0xbdd9464e	-0.10609113
137	0x3d8e957d	0.069621064
138	0xbe6018d5	-0.21884473
139	0xbe558c0a	-0.20854202
140	0x3e742adc	0.23844475
141	0x3d17797d	0.036981095
142	0xbe39f517	-0.181599
143	0x3d505048	0.050857812
144	0x3d398ade	0.04529845
145	0x3d05c108	0.032654792
146	0xbe6af0ba	-0.22943392
147	0xbda11735	-0.078657545
148	0x3e0e41fe	0.13892362
149	0xbd7649c1	-0.06012893
150	0x3add11ae	0.0016866231
151	0xbdf19997	-0.11796873
152	0x3dbf510f	0.093416326
153	0xbd2cbd3d	-0.04217266
154	0x3e92b94e	0.28657
155	0x3de37122	0.11105563
156	0xbe0dbcf6	-0.13841614
157	0x3daee717	0.08540171
158	0x3e7544e2	0.23952058
159	0xbe71318f	-0.23554061
160	0xbe8730b0	-0.26404333
161	0xbd8db0b3	-0.06918468
162	0x3ddf08ce	0.10890351
163	0x3e147c17	0.14500462
164	0x3e50351a	0.20332757
165	0xbe12fd4e	-0.1435444
166	0x3dd80e10	0.10549557
167	0xbd1ee25e	-0.0387901
168	0x3e579492	0.21052769
169	0x3e0309d5	0.1279672
170	0xbeb1cf7d	-0.34728613
171	0xbe1b1739	-0.15145577
172	0xbca3aff8	-0.01998137
173	0xbe6ffbd2	-0.23435906
174	0xbeb2ae71	-0.34898713
175	0xbe2b206c	-0.16711587
176	0x3e3cb0e0	0.18426847
177	0xbeeb0c55	-0.45907846
178	0x3da08ab1	0.07838953
179	0xbdd6db17	-0.10491007
180	0xbe4e4cca	-0.2014648
181	0xbdbec529	-0.09314949
182	0xbdd25fa6	-0.1027215
183	0x3dd9a938	0.10627979
184	0xbe8fc7fb	-0.2808226
185	0x3e8eacea	0.27866298
186	0xbe248474	-0.16066152
187	0xbdf222e4	-0.11823061
188	0xbeadad06	-0.3392107
189	0x3e41b32b	0.18916003
190	0xbe35a37c	-0.17738146
191	0xbe2ef0e1	-0.17084076
192	0xbd1836b9	-0.037161563
193	0xbed6c01b	-0.4194344
194	0x3e24fb98	0.161116
195	0xbdbab8c3	-0.09117272
196	0x3e51f89d	0.20504995
197	0xbd0ca2e8	-0.034335047
198	0xbd681c87	-0.05666783
199	0x3d53aa80	0.051676273
200	0xbc97bf0e	-0.01852372
201	0xbdd6522a	-0.1046489
202	0x3e183553	0.14864092
203	0x3d9cb30e	0.076513395
204	0xbe95f543	-0.29288682
205	0x3d170774	0.036872342
206	0xbe4af61b	-0.19820444
207	0xbd5b6389	-0.05356172
208	0x3e7cb99f	0.24680184
209	0xbe9059b4	-0.28193438
210	0x3db44eb4	0.08804074
211	0xbc499aa2	-0.012304934
212	0xbe51cd44	-0.20488459
213	0x3cc1ffc5	0.02368153
214	0xbe5a2eca	-0.21306911
215	0xbed29e8e	-0.41136593
216	0xbebbf6ef	-0.36711833
217	0xbe53fab8	-0.2070111
218	0xbead23f1	-0.33816484
219	0xbea242de	-0.3169164
220	0x3e4f52c8	0.20246422
221	0x3deff328	0.117163
222	0xbe44e93b	-0.19229595
223	0x3d26df99	0.040740583
224	0xbe43bf81	-0.19116022
225	0xbe949c33	-0.2902542
226	0xbec3aaf3	-0.3821636
227	0xbe3becc9	-0.18352045
228	0xbe855461	-0.26040938
229	0x3d4e08c5	0.050301332
230	0xbe56e923	-0.20987372
231	0x3da04111	0.078249104
232	0x3e3ea6d9	0.18618335
233	0xbdeecc24	-0.116600305
234	0x3e92ca5c	0.28670013
235	0x3dc00c25	0.093773164
236	0xbe6d4bec	-0.23173493
237	0x3e44bbfa	0.19212332
238	0xbe90169d	-0.28142253
239	0xbd23b431	-0.039966766
240	0xbe833462	-0.25625902
241	0x3e4591e6	0.19293937
242	0x3d7036d4	0.05864604
243	0xbcf2a40c	-0.02961924
244	0xbec6b916	-0.38813084
245	0x3d197efb	0.037474614
246	0xbd70b2b8	-0.05876419
247	0xbc8f41d4	-0.017487444
248	0xbcff117a	-0.031136263
249	0x3d90c2db	0.07068416
250	0xbd8d0f4c	-0.06887683
251	0xbe94c2ea	-0.29054958
252	0x3dbc64e8	0.09198934
253	0x3c60919f	0.013706594
254	0x3e11af7c	0.14227098
255	0xbe009b71	-0.12559296

linear2.weight f4 [2, 256]
0	0xbc6d2480	-0.014474034
1	0xbca6bde1	-0.020354213
2	0xbc207dc6	-0.009795612
3	0xbc16c8b7	-0.009203128
4	0x3c69f548	0.014279671
5	0x3d03d46b	0.032185
6	0x3d1689d7	0.036752548
7	0xbd48b2ce	-0.048998646
8	0xbc8154f4	-0.01578758
9	0xbb9df3ae	-0.0048203086
10	0xba31a48f	-0.00067765353
11	0x3caba070	0.020950526
12	0xbb73fbd7	-0.0037228966
13	0xbc86696c	-0.016407691
14	0x3bdd58ed	0.0067549855
15	0x3c5ebf88	0.013595469
16	0xbd64d704	-0.055869117
17	0xbc551a28	-0.013006724
18	0xbd349a39	-0.04409239
19	0xbca7d982	-0.020489458
20	0xbd0a6406	-0.033786796
21	0xbd24cb06	-0.04023268
22	0x3d44de4c	0.04806356
23	0xbc950d4a	-0.018194813
24	0x3d3d646a	0.04623834
25	0x3d702e79	0.05863807
26	0xbbf24ed8	-0.007394653
27	0x3bdcd998	0.0067398064
28	0x3c4a35e2	0.012341948
29	0xbc3857e6	-0.011251425
30	0xbab41c59	-0.0013741358
31	0x3c10da89	0.008841165
32	0xbcad79c3	-0.021176225
33	0x3d544f70	0.05183357
34	0x3d52ccd8	0.051464885
35	0x3d44a79b	0.048011404
36	0xbb983707	-0.0046452316
37	0xbcc07491	-0.023493083
38	0x3d63f268	0.0556511
39	0x3be93640	0.007117063
40	0xbd4bc1c4	-0.049745336
41	0x3cd1e1cf	0.02562037
42	0xbd63f0d4	-0.055649593
43	0x3c2cf607	0.010556704
44	0xbce739e0	-0.02822584
45	0x3c529a5e	0.012854187
46	0x3ac137b9	0.0014741338
47	0xbd127258	-0.035753578
48	0x3c44e8b8	0.012018375
49	0xbc81c0cc	-0.015839003
50	0xbd14d762	-0.036338218
51	0xbc6c8724	-0.014436517
52	0x3d4ecfae	0.050491028
53	0x3d47899e	0.048715226
54	0x3d5a4f2c	0.05329816
55	0xbc83e4e8	-0.016100362
56	0x3c8d233b	0.017228713
57	0xbd3f4ca5	-0.046703953
58	0xbc354cb0	-0.011065647
59	0x3d1e57aa	0.03865782
60	0xbd5f1a7b	-0.054468613
61	0x3c9999bc	0.018750064
62	0xbcf69bc3	-0.03010357
63	0xbd3f0266	-0.046633147
64	0xbb5faacb	-0.00341289
65	0x3cb64e6e	0.022254195
66	0xbc92949d	-0.01789313
67	0xbd389943	-0.045068037
68	0x3cfaaf17	0.030601067
69	0x3b17c486	0.0023157909
70	0x3b28a6a0	0.0025734082
71	0x3ca3044e	0.019899514
72	0xbb412395	-0.0029470671
73	0x3b83e610	0.0040252283
74	0xbc755843	-0.0149746565
75	0x3c7d4961	0.015459389
76	0xbcc6a2a4	-0.024247475
77	0x3d601047	0.054703023
78	0x3b1f387f	0.002429515
79	0xbd4c23aa	-0.0498387
80	0x3c9eb09c	0.019371323
81	0xbc31c5e9	-0.010850408
82	0x3c892e54	0.016745724
83	0x3d2177a2	0.03942073
84	0x3d26f4ff	0.04076099
85	0x3d47af15	0.048750956
86	0xbc8bf7ce	-0.017085936
87	0x3c98d356	0.01865546
88	0x3d62448c	0.055241153
89	0xbc3b67e8	-0.011438347
90	0x3ccefce8	0.02526708
91	0x3d4ed4c0	0.050495863
92	0x3cc7a273	0.024369454
93	0x3b434119	0.002979344
94	0x3a3adc5e	0.0007128174
95	0x3ce9a446	0.028520714
96	0xbd06692c	-0.032815143
97	0xbc244800	-0.010026932
98	0x3b2a6a82	0.0026003425
99	0xbc9af644	-0.018916257
100	0xbd7b1d7c	-0.061307415
101	0xbc69b883	-0.014265182
102	0x3d2480f9	0.04016206
103	0x3d498b38	0.049205035
104	0xbce2ac9c	-0.027670197
105	0x3ccf0f3a	0.025275815
106	0x3c0d7b22	0.008635314
107	0x3d580b89	0.052745376
108	0xbd5b673a	-0.05356524
109	0xbd17aedc	-0.037031993
110	0xbb933bc7	-0.00449321
111	0xbd5b001e	-0.05346691
112	0xbd78d6ec	-0.06075184
113	0x3c873019	0.016502427
114	0xbcea0c97	-0.028570456
115	0x3cddb262	0.027062599
116	0xbb5916c0	-0.0033125132
117	0xbce484bc	-0.027895324
118	0xbd2cab3c	-0.04215549
119	0xbcc557ec	-0.024089776
120	0xbd0014d2	-0.031269856
121	0xbc933b41	-0.01797259
122	0x3a206175	0.0006118038
123	0x3b602b20	0.0034205392
124	0xbd3307fa	-0.04370878
125	0x3d087fd9	0.03332505
126	0xbc39b5d5	-0.011334856
127	0x3c672128	0.014107026
128	0x3b3aa225	0.0028477993
129	0x3ccf2a8c	0.025288843
130	0xb9556b0d	-0.00020353142
131	0xbd1051dd	-0.03523432
132	0x3ced0b85	0.028936157
133	0x3c25f684	0.010129575
134	0xbbc2a9b0	-0.0059406385
135	0xbcbbb6dd	-0.022914344
136	0x3d4b9738	0.04970476
137	0xbbde2141	-0.0067788665
138	0x3d27fd0c	0.04101281
139	0x3ce28b50	0.02765432
140	0x3d154fd2	0.036453076
141	0xbd18eee5	-0.037337203
142	0xbcb42aad	-0.021993006
143	0xbcda19af	-0.026623575
144	0xbcb45033	-0.022010898
145	0x3c9d3e87	0.019194854
146	0xbceeaf47	-0.029136313
147	0x3c17b578	0.009259574
148	0x3d08cf1b	0.033400636
149	0x3d51825e	0.05114972
150	0xbd02d414	-0.031940535
151	0x3c3bfb68	0.011473514
152	0x3c497f8f	0.012298479
153	0x3c2a3ee3	0.01039097
154	0x3baf81f0	0.005356066
155	0x3ccb9d1e	0.024855193
156	0x3d212df5	0.03935047
157	0x3cb28a3c	0.02179443
158	0xbc923513	-0.017847573
159	0x3d1c0386	0.038089298
160	0xbc48a21c	-0.012245681
161	0xbd4f9ee8	-0.050688654
162	0x3c5d39ee	0.013502581
163	0x3a4dbcdb	0.0007848271
164	0xbd091d6e	-0.033475332
165	0x3ca5aeb1	0.0202249
166	0x3c8011c9	0.01563348
167	0x3c354742	0.0110643525
168	0xbd571562	-0.052510627
169	0x3c0bfe16	0.0085444655
170	0xbbd51e1e	-0.0065038344
171	0x3d60118f	0.054704245
172	0x3d60bc2b	0.05486695
173	0x3d442b92	0.047893114
174	0xbd1f5003	-0.038894664
175	0xbc8c6882	-0.017139677
176	0xbbbb7ca9	-0.0057216478
177	0xbd095e7b	-0.03353737
178	0x3d211e17	0.039335337
179	0xbca0819f	-0.019593058
180	0xbd46d13e	-0.048539393
181	0x3af41b91	0.0018623938
182	0x3c0dd725	0.0086572515
183	0xbcc9d5d0	-0.024638087
184	0x3d51a6f5	0.051184613
185	0xbcf992e2	-0.030465547
186	0x3cd6f935	0.026241878
187	0xbd6a55c6	-0.057210706
188	0x3d17e1d4	0.0370806
189	0xbb5b5380	-0.0033466518
190	0xbcc94e3f	-0.024573443
191	0xbbbeb5f9	-0.0058200327
192	0xbcfc6b12	-0.030812774
193	0x3c8e457f	0.017367123
194	0xbd1a68e2	-0.03769768
195	0xbd6e78a2	-0.058220513
196	0xba374f80	-0.00069927424
197	0x3cf74798	0.030185506
198	0x3cd5d708	0.026103511
199	0x3cb78801	0.022403719
200	0xbcbcdf9e	-0.023055848
201	0x3d1dba3d	0.03850769
202	0xbcf1db87	-0.029523624
203	0x3b967802	0.0045919428
204	0x3c894544	0.016756661
205	0x3ce261b2	0.027634475
206	0xbbab757d	-0.0052325116
207	0x3cdf4a10	0.027256995
208	0x3cbc6c92	0.02300099
209	0x3d131b2f	0.035914596
210	0xbd181b51	-0.037135426
211	0xbca6255b	-0.020281484
212	0x3d9043d1	0.07044185
213	0xbb6f6fee	-0.003653522
214	0xbcd0d767	-0.025493337
215	0x3cb53143	0.022118216
216	0xbcf27954	-0.02959887
217	0xbc2a67da	-0.010400737
218	0xbd18a44f	-0.037266072
219	0x3cbd8b97	0.02313785
220	0xbcddaebb	-0.027060857
221	0x3d16ee07	0.036848094
222	0xbc6beb53	-0.014399367
223	0xbcfafd64	-0.030638404
224	0x3be62edb	0.0070246286
225	0x3c414857	0.011797032
226	0x3d5d0ddc	0.053968295
227	0xbd0eb2d0	-0.034838498
228	0x3d3dab8e	0.046306185
229	0xbda0f784	-0.0785971
230	0x3b8f6b25	0.0043767863
231	0x3ce4281b	0.027851155
232	0xbc854947	-0.016270293
233	0xbd7ddb64	-0.061976805
234	0xbba6cc50	-0.005090274
235	0x3c9a50f8	0.018837437
236	0xbb504acb	-0.0031782861
237	0xbce58534	-0.028017618
238	0xbb779f28	-0.0037784074
239	0xbb6b2f40	-0.0035886317
240	0x3cc49ef3	0.024001574
241	0xbcf59ee7	-0.029982997
242	0x3a8ab586	0.0010582663
243	0xbc96ad13	-0.018393075
244	0x3c07e07c	0.008293267
245	0xbcf0c3c1	-0.029390218
246	0xbcd095fd	-0.025462145
247	0x3d325f99	0.0435482
248	0xbcfaec1e	-0.030630168
249	0x3d12e620	0.035863996
250	0x3d376051	0.04476959
251	0x3d41df86	0.04733231
252	0xbd734984	-0.05939628
253	0x3ccd8404	0.025087364
254	0xbd1f5142	-0.038895853
255	0xbd30c3f6	-0.043155633

linear2.bias f4 [2]
0	0xbd10c0fc	-0.035340294
1	0x3d466452	0.048435517
