model/model.pth (torch, 16192 bytes, 4 tensors)

linear1.weight f4 [256, 11]
-0.16821896 0.026897132 0.04974796 -0.041122265 0.10939914 -0.1559419 -0.027878202 0.026316566
0.07937713 -0.07035257 0.08289689 0.17402579 -0.15062879 0.16115174 -0.20370968 0.014645395
-0.19531327 0.033821855 0.05079566 -0.048110135 0.0080044465 0.13767941 0.10959531 -0.26346633
-0.23354743 -0.13246422 -0.21338671 -0.26714757 0.066106394 0.16352025 -0.43407717 0.18293594
-0.07042314 0.06182497 0.03947173 -0.06679703 -0.12402859 0.08616226 -0.29773185 -0.17408663
-0.31070802 0.15458216 0.095899366 -0.009040767 -0.041393306 -0.20764323 -0.07292714 -0.14909281
-0.11360385 0.0053362553 0.0074053733 0.026632017 -0.15571612 0.23353642 -0.05200658 0.15608296
-0.2550888 0.29350376 -0.14162464 -0.21592994 -0.02571943 0.14198624 0.05576463 -0.3723385
-0.1111851 -0.18093807 -0.19967954 0.051709265 -0.10815558 0.09895003 -0.053938642 -0.09803564
-0.22826906 0.023462199 -0.13225979 -0.12899849 0.25484392 -0.18219475 -0.10915157 -0.26390573
-0.3385013 0.018087147 -0.10786249 -0.065044925 0.012740238 0.031773742 -0.30966926 -0.19663872
0.14514573 -0.24005418 -0.04835111 -0.0979879 -0.33837077 -0.23666361 0.03981172 -0.4091729
-0.015915252 0.10292383 -0.07758743 0.21397595 0.014718711 0.12262525 -0.23008105 -0.08462265
-0.26746485 -0.024477223 -0.28529197 0.256297 0.14293861 -0.26102597 -0.010294314 -0.016618654
-0.15965997 0.017645132 0.03509173 -0.21899147 -0.023589622 0.11204532 -0.06672572 -0.29333267
-0.0013276609 -0.101862006 0.12236773 0.2906372 -0.20910779 0.05785635 0.0774072 -0.13091971
-0.07674014 -0.2243404 -0.051993035 0.2376198 -0.13098636 0.082785524 -0.09981746 -0.20942035
0.06551782 -0.17713107 0.011858811 -0.08292479 0.004319126 -0.1323852 -0.22122325 -0.19155298
0.1567351 -0.14386912 -0.24458647 -0.10588724 0.12115898 -0.03937826 -0.015407532 -0.120530345
-0.064971164 0.27424377 -0.24251926 -0.1766324 0.1216357 0.23529844 -0.09876962 -0.11042924
-0.04906552 0.1386558 0.027800635 0.11628412 0.05930936 -0.28587955 -0.07146099 -0.25901777
0.059806794 -0.19561161 -0.21956523 -0.0124926595 0.08786607 0.15468839 0.064910315 0.16193458
0.081066564 -0.25343865 -0.29755872 -0.24879289 -0.079788506 -0.07973754 -0.16310215 0.15192357
-0.1593038 0.13678415 -0.2966248 0.2311481 -0.11077939 0.2559638 -0.42463866 0.07968593
0.051988333 -0.104597025 -0.27979362 -0.15263535 -0.16458859 -0.2563367 0.0057433248 -0.0778813
-0.15710777 -0.21688627 0.03668366 -0.20706312 -0.0031596702 -0.42897052 0.095182806 -0.10483929
0.23651434 -0.29399723 0.20216508 -0.2021243 -0.30443233 0.20015955 -0.1026446 0.20437671
-0.22706427 0.060291063 0.28833976 0.19684735 0.04482924 -0.16012055 0.3001283 0.11372562
0.13465528 -0.1669192 -0.063966244 -0.06814437 -0.1511469 0.0051033003 -0.09711013 0.02065692
-0.10512683 -0.29809195 -0.15568164 0.095799595 -0.12168902 -0.17355411 0.009524593 -0.014664018
-0.27222443 -0.22055236 0.15586755 0.08002418 -0.08877061 0.08232942 -0.06522041 -0.37585223
0.1352329 -0.2129105 0.074736774 -0.20904712 0.057864096 -0.18281786 0.061438475 -0.27936345
00000000: 9741 2cbe 6057 dc3c 84c4 4b3d d26f 28bd
00000010: a80c e03d 3caf 1fbe d460 e4bc d795 d73c
00000020: 7a90 a23d 0215 90bd d8c5 a93d d133 323e
00000030: 6f3e 1abe f604 253e 4599 50be 3df3 6f3c
00000040: 3400 48be c988 0a3d 1c0f 503d 220f 45bd
00000050: 1525 033c d5fb 0c3e 8273 e03d 0fe5 86be
00000060: 0f27 6fbe b3a4 07be 0c82 5abe 91c7 88be
00000070: ca62 873d da71 273e 5d3f debe 8f53 3b3e
00000080: 023a 90bd 2e3c 7d3d 1cad 213d e2cc 88bd
00000090: b402 febd d775 b03d 4f70 98be c443 32be
000000a0: 1f15 9fbe c94a 1e3e e366 c43d ba1f 14bc
000000b0: 078c 29bd 6da0 54be d35a 95bd c9ab 18be
000000c0: 23a9 e8bd c1db ae3b c6a8 f23b 632b da3c
000000d0: 0c74 1fbe 2c24 6f3e da04 55bd 36d4 1f3e
000000e0: 009b 82be 2046 963e 0d06 11be bd1c 5dbe
000000f0: 8eb1 d2bc d764 113e 7469 643d 27a3 bebe
00000100: 04b5 e3bd d447 39be cb78 4cbe 18cd 533d
00000110: ac80 ddbd 50a6 ca3d c4ee 5cbd e9c6 c8bd
00000120: 5dbf 69be cc33 c03c 1c6f 07be 2e18 04be
00000130: e77a 823e 4391 3abe dc8a dfbd a71e 87be
00000140: 0b50 adbe 7f2b 943c 02e7 dcbd 4636 85bd
00000150: 6ebc 503c 2f25 023d f88c 9ebe a95b 49be
00000160: 15a1 143e c3d0 75be d00b 46bd e1ad c8bd
00000170: ef3e adbe f257 72be 9d11 233d 1c7f d1be
00000180: b460 82bc bbc9 d23d 29e6 9ebd 831c 5b3e
00000190: c026 713c f222 fb3d 5e9a 6bbe a44e adbd
000001a0: 27f1 88be 7584 c8bc ca11 92be 5c39 833e
000001b0: 805e 123e 32a5 85be 7ba9 28bc d823 88bc
000001c0: e77d 23be 868c 903c 59bc 0f3d 4d3f 60be
000001d0: 063f c1bc 0478 e53d 7fa7 88bd b32f 96be
000001e0: e804 aeba 079d d0bd ef9b fa3d 66ce 943e
000001f0: 5a20 56be c8fa 6c3d ab87 9e3d d10f 06be
00000200: ef29 9dbd 7db9 65be a6f6 54bd 9b52 733e
00000210: 4a21 06be 758b a93d 196d ccbd 4a72 56be
00000220: 352e 863d d961 35be 754b 423c 79d4 a9bd
00000230: 7487 8d3b fc8f 07be 5988 62be 7726 44be
00000240: 2b7f 203e 6d52 13be e074 7abe 69db d8bd
00000250: 3322 f83d 194b 21bd e06f 7cbc 9dd8 f6bd
00000260: 9a0f 85bd ae69 8c3e f856 78be 20df 34be
00000270: 231c f93d 13f2 703e ba47 cabd ba28 e2bd
00000280: edf8 48bd c9fb 0d3e 28be e33c 5e26 ee3d
00000290: 5fee 723d ce5e 92be 245a 92bd fa9d 84be
000002a0: f8f7 743d 694e 48be b5d5 60be 03ae 4cbc
000002b0: 20f3 b33d a266 1e3e b3ef 843d 2ed2 253e
000002c0: 3a06 a63d b6c2 81be 9e59 98be 90c3 7ebe
000002d0: 2868 a3bd 6f4d a3bd 4004 27be da91 1b3e
000002e0: 8920 23be 2511 0c3e 35df 97be 16b2 6c3e
000002f0: 4ee0 e2bd b00d 833e 3d6a d9be 6032 a33d
00000300: b8f1 543d f736 d6bd 1c41 8fbe 714c 1cbe
00000310: e989 28be 903e 83be 8032 bc3b 3b80 9fbd
00000320: dce0 20be 6f17 5ebe 9b41 163d 5b08 54be
00000330: 7812 4fbb 06a2 dbbe 34ef c23d fbb5 d6bd
00000340: d130 723e ce86 96be 5d04 4f3e acf9 4ebe
00000350: 8ede 9bbe a0f6 4c3e 5537 d2bd 2148 513e
00000360: 8983 68be c3f3 763d 45a1 933e 5a92 493e
00000370: dd9e 373d a4f6 23be 6baa 993e fae8 e83d
00000380: 13e3 093e deec 2abe bc00 83bd 478f 8bbd
00000390: 41c6 1abe 9639 a73b ade1 c6bd b338 a93c
000003a0: bc4c d7bd 829f 98be 026b 1fbe 9432 c43d
000003b0: 1838 f9bd 2bb8 31be 0a0d 1c3c 5941 70bc
000003c0: 0061 8bbe 7ad8 61be be9b 1f3e b8e3 a33d
000003d0: 5ecd b5bd 549c a83d 4792 85bd b46f c0be
000003e0: 7e7a 0a3e 3605 5abe 980f 993d 7310 56be
000003f0: e702 6d3d 9b34 3bbe e9a6 7b3d ba08 8fbe

linear1.bias f4 [256]
-0.101949826 -0.35488912 -0.30662698 -0.27318785 0.15898715 0.11666263 0.23228867 0.08887066
0.06318348 0.1167334 -0.38067478 -0.4104834 -0.485045 0.030868629 -0.1615435 -0.099731594
-0.16207527 0.06234311 -0.52773166 -0.082527235 -0.12714134 -0.2060917 -0.29760844 -0.11718762
0.09689143 -0.332423 0.16444017 0.0048764525 -0.06801194 0.038709346 -0.0705631 -0.40283072
0.072746284 -0.17024858 0.15767026 -0.2552614 -0.096540414 -0.38419113 0.13069382 -0.04617215
-0.020850614 -0.13092953 0.05636187 -0.23074284 0.28962022 -0.057084013 -0.20428754 0.2946664
0.043328863 -0.05131475 -0.103527926 -0.088532 -0.2755558 0.16110301 -0.25729293 -0.033610445
-0.09765473 0.22327256 0.109959535 -0.41022262 -0.03290206 0.028127462 -0.19345804 0.060550027
0.1703695 0.050381508 -0.20588142 0.18162186 -0.266835 -0.31722 -0.0841141 -0.082322046
-0.18252867 0.084221095 0.045126088 -0.32505473 -0.3622426 0.1895168 0.08968374 0.102188155
-0.3187643 -0.11235009 -0.34158558 -0.061033208 -0.34266895 0.031804655 0.17968264 -0.25807676
-0.049400978 -0.13727307 0.031159619 -0.38153955 -0.10100859 -0.08037422 0.13467936 0.25708675
-0.14730433 0.13659349 -0.18434049 -0.3155522 0.13557793 -0.19373918 -0.253012 -0.34721267
-0.087047435 0.024110977 -0.17341042 -0.3817929 -0.06396377 0.08637175 0.1863148 -0.0044204416
-0.26930523 0.072968215 0.18266922 -0.18443644 -0.2473465 0.027828477 0.060882203 -0.3918503
-0.21280122 -0.13124235 -0.38854077 -0.3971403 0.23137152 0.024530059 -0.20802915 0.20469251
0.08587483 0.16804883 -0.2766569 -0.1930708 -0.25348708 0.14335261 -0.13763398 -0.23652124
0.105069734 0.24900806 -0.22896428 0.12681977 -0.20153199 -0.22121513 0.06364663 0.03607425
0.015034321 0.1250869 0.024070743 -0.10478058 -0.27206233 -0.33434793 0.28937247 -0.22053362
0.044406116 0.04679149 -0.069978 0.21478935 -0.46756575 -0.02063355 -0.21499267 0.23100936
-0.08627458 0.17450105 -0.21355186 -0.34539554 0.06153176 0.08081658 -0.075466044 -0.040044922
0.13034083 -0.1379539 0.013325167 -0.1845858 -0.43780446 -0.2733811 0.27180913 -0.16987866
0.0147028 0.08876759 -0.2194522 -0.01747917 -0.29959536 -0.21285231 0.097614564 0.11745751
-0.045764387 -0.23636316 0.050324485 -0.106488615 -0.052885637 -0.10596315 -0.2530052 0.07430669
-0.028470296 -0.06903383 -0.35052463 0.16196893 -0.07844418 -0.3367672 0.13150258 -0.16164303
-0.44620728 -0.19054219 0.22773954 -0.037584536 0.13461962 -0.308267 -0.18023285 -0.20999037
0.072698705 -0.10334282 0.118895374 -0.12558068 -0.33719823 -0.11972131 -0.23440129 0.17802626
0.18961515 -0.25491008 -0.47203097 0.039463732 -0.19687213 -0.18627413 0.15347664 -0.19804826
-0.30595005 -0.22637832 -0.08006411 0.20586325 -0.27399305 0.15880424 0.007873221 0.04826057
-0.21477899 0.14773503 -0.432114 -0.05733974 0.2023726 -0.23176281 -0.32642958 0.2808105
-0.01884517 -0.27312562 -0.36835825 0.034778435 0.09041646 0.2834944 0.1284192 -0.3019369
-0.31164026 -0.11296666 -0.32152513 -0.17907532 -0.19036853 -0.10484991 -0.31992772 -0.12624085
00000000: 12cb d0bd 07b4 b5be 36fe 9cbe 47df 8bbe
00000010: 87cd 223e d1ec ee3d 15dd 6d3e d201 b63d
00000020: 5766 813d ec11 ef3d cee7 c2be e12a d2be
00000030: d157 f8be 35e0 fc3c a96b 25be 1440 ccbd
00000040: 0ff7 25be 7d5b 7f3d 6c19 07bf 0a04 a9bd
00000050: 5731 02be b409 53be 2260 98be 1000 f0bd
00000060: 046f c63d 5933 aabe 0163 283e a6ca 9f3b
00000070: d849 8bbd b18d 1e3d 6383 90bd d43f cebe
00000080: 01fc 943d a555 2ebe 5074 213e 9fb1 82be
00000090: fbb6 c5bd b3b4 c4be 9ad4 053e 021f 3dbd
000000a0: e8ce aabc 6412 06be b4db 663d da47 6cbe
000000b0: 1a49 943e edd0 69bd c130 51be 84de 963e
000000c0: 9b79 313d 6a2f 52bd 7306 d4bd 4450 b5bd
000000d0: a615 8dbe 30f8 243e e6bb 83be 1bab 09bd
000000e0: 34ff c7bd 90a1 643e 7732 e13d b308 d2be
000000f0: 4fc4 06bd 906b e63c dd19 46be 4e03 783d
00000100: 5875 2e3e d75c 4e3d 94d2 52be 15fb 393e
00000110: 999e 88be a96a a2be 0344 acbd 7698 a8bd
00000120: cce8 3abe 1c7c ac3d 22d6 383d 936d a6be
00000130: dd77 b9be b110 423e 1cac b73d 0648 d13d
00000140: 1335 a3be ce17 e6bd 4ee4 aebe f5fd 79bd
00000150: 4e72 afbe 9945 023d bafe 373e a322 84be
00000160: ae58 4abd 5091 0cbe 7542 ff3c 2759 c3be
00000170: 97dd cebd 3d9b a4bd 63e9 093e e0a0 833e
00000180: f2d6 16be 2adf 0b3e c1c3 3cbe 0f90 a1be
00000190: f1d4 0a3e 9063 46be ca8a 81be dcc5 b1be
000001a0: ed45 b2bd 6284 c53c 8092 31be 5c7a c3be
000001b0: 70ff 82bd ace3 b03d 4fc9 3e3e 5ad9 90bb
000001c0: 60e2 89be 5c70 953d a40d 3b3e e8dc 3cbe
000001d0: 6748 7dbe 8cf8 e33c 9e5f 793d 9aa0 c8be
000001e0: 90e8 59be 6564 06be d1ee c6be f955 cbbe
000001f0: a8ec 6c3e 43f3 c83c 9805 55be ea9a 513e
00000200: 25df af3d fe14 2c3e f9a5 8dbe 5ab4 45be
00000210: 0fc9 81be 07cb 123e ecef 0cbe a032 72be
00000220: cd2e d73d f8fb 7e3e 9d75 6abe 0bdd 013e
00000230: 675e 4ebe 3886 62be 2a59 823d 98c2 133d
00000240: 8352 763c c816 003e 0230 c53c 3397 d6bd
00000250: c14b 8bbe a72f abbe a128 943e 91d3 61be
00000260: 30e3 353d 6fa8 3f3d a050 8fbd bdf1 5b3e
00000270: c764 efbe b107 a9bc 0a27 5cbe b88d 6c3e
00000280: bab0 b0bd 67b0 323e 57ad 5abe afd7 b0be
00000290: ba08 7c3d 2a83 a53d f18d 9abd 2506 24bd
000002a0: 1178 053e ca43 0dbe cd51 5a3c 0f04 3dbe
000002b0: e827 e0be 9cf8 8bbe 912a 8b3e acf4 2dbe
000002c0: 03e4 703c c8cb b53d 14b8 60be 7a30 8fbc
000002d0: 9064 99be f5f5 59be 25ea c73d 908d f03d
000002e0: 7073 3bbd 2f09 72be 0c21 4e3d b416 dabd
000002f0: 9c9e 58bd 3503 d9bd e689 81be 1b2e 983d
00000300: 8a3a e9bc 9c61 8dbd f777 b3be 2fdb 253e
00000310: 58a7 a0bd c06c acbe 9da8 063e c085 25be
00000320: 4875 e4be 7e1d 43be 8e34 693e 3ef2 19bd
00000330: bad9 093e 2cd5 9dbe f68e 38be b707 57be
00000340: 0fe3 943d 67a5 d3bd 6b7f f33d 3998 00be
00000350: 3fa5 acbe 7230 f5bd e406 70be 844c 363e
00000360: 792a 423e 9383 82be 0bae f1be b9a4 213d
00000370: d998 49be a5be 3ebe fb28 1d3e 2acd 4abe
00000380: 7ca5 9cbe b8cf 67be a7f8 a3bd d1cd 523e
00000390: d148 8cbe 949d 223e affe 003c e0ac 453d
000003a0: 06ef 5bbe da47 173e 0c3e ddbe 13dd 6abd
000003b0: c33a 4f3e 3b53 6dbe c721 a7be 65c6 8f3e
000003c0: 3061 9abc 1fd7 8bbe 7499 bcbe d573 0e3d
000003d0: 442c b93d 2e26 913e 5380 033e 7997 9abe
000003e0: 508f 9fbe 105b e7bd f19e a4be 855f 37be
000003f0: f8ef 42be 8dbb d6bd 91cd a3be 4845 01be

linear2.weight f4 [2, 256]
-0.021002542 0.047474667 -0.03220161 -0.0058671394 0.04214017 -0.018323261 0.01436641 0.016554536
-0.019276587 0.0092666745 0.0022354505 -0.013077587 0.017655427 -0.0022282302 0.07910288 0.00090940524
0.013318591 0.014035944 0.02639023 -0.043710396 -0.022437043 -0.03139877 -0.02545709 -0.100844465
0.021098873 -0.030767646 0.03490746 0.042440332 -0.021055534 0.040457673 -0.004605107 0.00093856273
0.012403695 -0.037254043 0.012351307 0.008023344 -0.01066371 -0.033601545 0.03471547 0.007939839
-0.014540972 -0.00070076 -0.015337895 -0.03514567 -0.024337918 0.02898185 0.005120628 0.047316268
0.0044824528 -0.04410049 -0.029587649 -0.011499405 0.016906824 0.0075431 0.029096141 -0.004706634
0.0011060328 0.0040049697 0.005920632 5.341152e-05 -0.018889355 0.022186674 0.013420882 0.0096380655
-0.02962158 -0.009401381 -0.020983748 -0.025610982 -0.008190872 -0.007946124 0.021440364 -0.0100716
0.04571767 -0.029716874 -0.04258849 -0.024248477 -0.020777665 0.025802167 -0.029439278 0.058137074
0.020837842 0.021761958 -0.028107936 -0.010496014 -0.029992372 -0.0071823695 -0.028000256 0.058235258
0.012357794 -0.051065326 0.003149029 0.043086957 0.00643123 0.003938302 0.019906197 0.027283061
0.01756686 -0.023301538 -0.051838137 0.04282508 -0.0044941325 -0.003263913 -0.02315864 0.018853107
-0.048284367 0.017034883 0.047252193 0.011083394 0.044544548 -0.011727568 -0.027382407 0.006162436
-0.016996143 -0.029283004 -0.008145374 -0.03927692 -0.015300619 0.018804248 0.022607207 -0.024772912
-0.021066476 -0.026081234 -0.05774838 0.0042145615 0.04042515 -0.062087737 0.030458726 0.026434707
0.0038642823 -0.007872626 -0.007738523 -0.050464828 -0.0044265916 -0.0023770751 0.017861925 0.001675956
0.0007884513 0.014808411 0.036649376 -0.009545356 3.4624085e-05 -0.037378043 0.031204969 -0.005750644
0.011842956 0.029592045 0.015873507 -0.016715825 0.047435936 0.017752992 0.04151517 0.000922458
0.027216231 0.011471729 -0.0025913683 0.008150652 -0.0030079724 0.0058796066 -0.02866038 0.023513613
-0.03525662 -0.017899986 0.041837234 -0.012325225 -0.031860627 -0.0292278 0.0134567795 -0.013249083
-0.04059282 0.011486789 -0.0030511245 0.024555452 -0.013615054 -0.026292749 0.018144907 -0.010098945
-0.041889526 -0.017920885 0.009130881 0.034094155 -0.023920326 -0.019869614 0.049347255 0.024417527
-0.011400091 -0.025822792 0.010247096 0.014005307 0.024679529 -0.015352617 0.06044042 -0.009079813
0.00060255115 -0.013055965 -0.027915847 -0.0027392341 0.03105673 0.034660865 0.050228156 -0.004767679
0.011672651 -0.011373417 -0.052383423 -0.0037462541 0.053816482 0.03392634 0.02113715 -0.0017610365
-0.016424876 0.026956988 -0.018464819 -0.025547544 0.040362924 0.016475245 -0.024327595 0.031281345
-0.053284787 -0.010790736 0.032247726 0.019184805 0.00072969985 -0.037196238 0.008243636 -0.00024351421
0.020181097 -0.022952667 0.011121518 -0.038138956 0.03374597 0.0279198 0.02578719 -0.036934607
-0.0023063456 -0.026683567 -0.01515372 0.006758428 -0.038026836 -0.029721895 0.062225908 0.011073902
0.017054403 0.003775085 -0.011562163 0.025877446 0.03561419 0.03873585 -0.0010517508 -0.0202016
-0.008995781 -0.00043983312 0.04406445 0.009053475 -0.042901862 -0.0002354688 -0.028010588 -0.03375364
00000000: 860d acbc cc74 423d d6e5 03bd 2241 c0bb
00000010: 2c9b 2c3d aa1a 96bc 1761 6b3c 619d 873c
00000020: efe9 9dbc 40d3 173c a380 123b 6043 56bc
00000030: 1da2 903c 8007 12bb b100 a23d 2765 6e3a
00000040: 3836 5a3c 04f7 653c 5330 d83c ac09 33bd
00000050: e4cd b7bc ff9b 00bd 638b d0bc 8b87 cebd
00000060: 8bd7 ac3c 6e0c fcbc 20fb 0e3d ead5 2d3d
00000070: a87c acbc f2b6 253d 70e6 96bb e109 763a
00000080: de38 4b3c b297 18bd 235d 4a3c 5874 033c
00000090: d7b6 2ebc c6a1 09bd cf31 0e3d 1916 023c
000000a0: 423d 6ebc 35b3 37ba cb4b 7bbc e8f4 0fbd
000000b0: 5060 c7bc 586b ed3c f1ca a73b b4ce 413d
000000c0: 8ae1 923b b7a2 34bd cc61 f2bc 0068 3cbc
000000d0: 2e80 8a3c 1c2c f73b 085b ee3c 1c3a 9abb
000000e0: 4df8 903a 1f3c 833b dc01 c23b 2f06 6038
000000f0: d9bd 9abc d4c0 b53c 42e3 5b3c fae8 1d3c
00000100: f5a8 f2bc 4008 1abc 1ce6 abbc 1fce d1bc
00000110: 0233 06bc 7630 02bc b4a3 af3c 5a03 25bc
00000120: 7442 3b3d cd70 f3bc 4571 2ebd bea4 c6bc
00000130: ec35 aabc 115f d33c a42a f1bc 2421 6e3d
00000140: 1fb4 aa3c 2246 b23c 9d42 e6bc 79f7 2bbc
00000150: 90b2 f5bc 155a ebbb cb60 e5bc 1888 6e3d
00000160: 5878 4a3c e029 51bd f15f 4e3b f37b 303d
00000170: 11bd d23b df0c 813b 5212 a33c ba80 df3c
00000180: 60e8 8f3c dee2 bebc 3a54 54bd 5a69 2f3d
00000190: 8443 93bb 60e7 55bb 30b7 bdbc d571 9a3c
000001a0: d4c5 45bd bd8c 8b3c 848b 413d 2097 353c
000001b0: 5874 363d fc24 40bc 1251 e0bc 43ee c93b
000001c0: 7f3b 8bbc e9e2 efbc 2d74 05bc d6e0 20bd
000001d0: 73af 7abc 5e0b 9a3c c032 b93c 90f0 cabc
000001e0: 9a93 acbc 50a8 d5bc 9189 6cbd 4e1a 8a3b
000001f0: d894 253d b64f 7ebd 9484 f93c 998d d83c
00000200: e63f 7d3b 30fc 00bc 7093 fdbb 35b4 4ebd
00000210: f10c 91bb b4c8 1bbb 2c53 923c c0ab db3a
00000220: 12b0 4e3a fa9e 723c a81d 163d 2064 1cbc
00000230: 5439 1138 b819 19bd 90a1 ff3c e66f bcbb
00000240: f508 423c 046b f23c 2809 823c a0ef 88bc
00000250: 2f4c 423d b96e 913c d00b 2a3d 1cd1 713a
00000260: 93f4 de3c ebf3 3b3c f2d3 29bb 508a 053c
00000270: 6721 45bb b7a9 c03b 2cc9 eabc 9f9f c03c
00000280: 3f69 10bd fea2 92bc 855d 2b3d beef 49bc
00000290: 4a80 02bd 246f efbc d379 5c3c af12 59bc
000002a0: a844 26bd 1633 3c3c 60f5 47bb 8428 c93c
000002b0: ad11 5fbc e463 d7bc a1a4 943c 0c76 25bc
000002c0: 5a94 2bbd d2ce 92bc b199 153c 50a6 0b3d
000002d0: 8ff4 c3bc 9ac5 a2bc 5920 4a3d 4407 c83c
000002e0: 73c7 3abc 528a d3bc 70e3 273c 8476 653c
000002f0: b92c ca3c 8b89 7bbc 6090 773d 7fc3 14bc
00000300: 86f4 1d3a b0e8 55bc c6af e4bc b984 33bb
00000310: af6a fe3c 8df8 0d3d 0abc 4d3d 313a 9cbb
00000320: a63e 3f3c 9257 3abc 0090 56bd b783 75bb
00000330: ac6e 5c3d 59f6 0a3d d127 ad3c 94d2 e6ba
00000340: 768d 86bc e7d4 dc3c 8843 97bc 1549 d1bc
00000350: 9853 253d 18f7 863c aa4a c7bc de20 003d
00000360: 2641 5abd a1cb 30bc 3116 043d 7429 9d3c
00000370: 5449 3f3a 155b 18bd 5110 073c d957 7fb9
00000380: d452 a53c 3b07 bcbc 0737 363c 9837 1cbd
00000390: 3739 0a3d 10b8 e43c a83f d33c be48 17bd
000003a0: 0f26 17bb 7f97 dabc 4f47 78bc ce75 dd3b
000003b0: 07c2 1bbd 557b f3bc 98e0 7e3d 506f 353c
000003c0: adb5 8b3c 6b67 773b 3a6f 3dbc f0fc d33c
000003d0: 2fe0 113d 7ca9 1e3d e7da 89ba d37d a5bc
000003e0: 0a63 13bc 6799 e6b9 ed7c 343d 0755 143c
000003f0: ddb9 2fbd 2de8 76b9 7676 e5bc 4241 0abd

linear2.bias f4 [2]
-0.028614666 -0.040412392
00000000: 4e69 eabc 7787 25bd
