model/model.pth (torch, 24384 bytes, 4 tensors)

linear1.weight f4 [512, 8]
00000000: 32c8 99be 8315 a5bd 0980 53bc dc06 d83b
00000010: 2ff8 61be 02bb fb3d 86f6 9abd 17b6 6d3b
00000020: e191 94be d32b 7e3e bbdc 573d 4c90 623e
00000030: 0088 233e dad6 22be feec 3dbd b116 853d
00000040: ade6 a23e 16a2 803e 816e 66be 2570 b4be
00000050: 6a03 99be 971b 65bd 5f75 073d 77ea 8dbe
00000060: 6354 1abe de15 333e 2b42 163e fe1b 29be
00000070: 718e 8abe 56d3 c8bd 32bb 0a3d 7720 4b3e
00000080: 362b 8dbe 303d 20be 30d5 053e 628a aa3d
00000090: c5b4 013d a69c d6be ccaa 583e 1148 d73d
000000a0: 86ba 423e 6332 3bbd d941 5e3d 55f9 40bd
000000b0: 0e9a 28bd 147f e23d 1baf 9cbe bf38 3f3e
000000c0: edc5 ae3e 1df4 cebd 5403 6cbe 9d55 2b3e
000000d0: cd4b b6bd 7759 5f3e 7ecb b1bc 36f2 853e
000000e0: c162 e6bd f556 d1bd 2b29 11be 180c 7f3e
000000f0: b4a4 a73d 96e1 813e 7efa 213e bce0 863d
00000100: eaa9 053e 7c6a 123e bed2 31bd eba8 3cbe
00000110: 5a0b 83be 046f b0be d0ae 91be ffda 84be
00000120: a511 34be abd7 86bd b27c e4bd 0551 04be
00000130: 62d9 0abe 4228 b33d b63c 9a3c e641 60be
00000140: a750 c2bc b585 c73b ecd2 a2be 69fb f53d
00000150: 73d0 063e 40ee 82be 38c4 443e f54b 06be
00000160: 488c 18be 2a65 b9be 4365 38be a128 e1bd
00000170: ad75 16be 6263 85bd ad65 783e d9a2 a03e
00000180: 4ffa e93d 5039 873c 6d4b 503e feb0 bbbd
00000190: 4d8d 96be 39b1 52be 5655 6c3e 26b0 d3bd
000001a0: 2867 1a3e 9fa4 82bc 954e fabd 7739 583e
000001b0: 92cd d73d f718 5abe c85e e4bc ee93 ab3d
000001c0: 6f38 79bd 54e5 e6bd 2d59 8a3e f5d4 77be
000001d0: 5e59 a6be e0f6 8bbe 90dd e3bd b15c a2be
000001e0: 29eb 013e 8cd7 9e3e 0a9e a7be 6e2e 863d
000001f0: 70ea 683e e2c2 4dbe 1bfe 8bbe a7e5 9f3e
00000200: a430 a53c 5682 293e 8f1d 78be 7ec5 943e
00000210: 45c8 ef3c fea0 0abe ea48 6abd 4642 b1bd
00000220: 2fb3 7ebe fdac 3bbe 8ec4 2f3d 2eb7 823e
00000230: 9707 973e ac3f c83c b275 75be abef 863e
00000240: 4830 1fbe 1ecc acbe b633 35bd bb13 17be
00000250: c5e5 b6bd 85e7 803e d127 57be 7a24 79be
00000260: ea56 fb3c b826 91be ccff 533e bdc0 aa3e
00000270: 94d0 9c3e 65a1 bbbe 61c4 a4be 3fa1 b3be
00000280: 133a 69be 473f 9fbe 4033 c9be 8296 acbd
00000290: 3f3b 83be 872d 123e 6fab 263e eb1b 193e
000002a0: 9793 5e3e 0476 703d e3f7 d53d 99c7 1b3e
000002b0: 8811 25be 5465 44be e5da 1fbe 7e1a babe
000002c0: a091 90be 65a7 c8be 5d52 1fbe 8d23 a73d
000002d0: 695d 8dbe 0a1f 77be 44b4 4f3e 2bbe b9bd
000002e0: 3dab 05be d8c1 8ebe 3455 c0be 2402 2e3d
000002f0: 2bf9 8d3d 4707 71bd f2c8 b23d f819 57be
00000300: 3ba7 b93b 5c3c 56ba a4f5 83bd ba0d d43d
00000310: 923d 123e 27ca 583d eddc b23e c710 4a3e
00000320: 4a35 f63c d252 193e 6279 2d3d 7344 113c
00000330: 04df bfbd 5d15 25be 0c8c 1dbe 0a54 983e
00000340: a689 bdbc e352 a53e 73a7 a3be a8f1 cfbd
00000350: 9cc9 ce3d e7e7 123e a3e6 703e 9f9d 9dbe
00000360: bd42 66bd aeb2 9bbe bb85 48be 7ff5 12be
00000370: c594 833d cc23 21bc 0ed2 1e3e 5836 04bd
00000380: 376b a1be fa05 053e 55d4 bbbe 5d28 ab3d
00000390: aae5 0bbd b3fb b8be 3770 65be c67c edbd
000003a0: 0a4e 9a3e cea9 80be 1433 bdbe 02da ddbd
000003b0: 7f3e 81be 9718 37be ad42 59be f467 703e
000003c0: 878e cdbe 296e 81be cf04 ea3d 2e2a 07be
000003d0: a524 c8bd d477 503e 2abf 8e3e 73a0 a63e
000003e0: 275c d63d 75b9 4fbe 2f60 96be 0255 11bc
000003f0: ee32 eebb 4609 3a3e a1ed 90be 35c9 00be
-0.3003555 -0.08060744 -0.012908944 0.0065926146 -0.22067331 0.12291528 -0.07566552 0.0036271864
-0.29017547 0.24821405 0.05270074 0.22125357 0.15969849 -0.15902272 -0.04636859 0.06498469
0.31816617 0.25123662 -0.22503091 -0.3524181 -0.29885417 -0.055934515 0.03307092 -0.27717945
-0.15071253 0.1748881 0.14673679 -0.16514584 -0.270618 -0.09805934 0.03386993 0.19836603
-0.2757203 -0.15648341 0.13069606 0.08327176 0.031666536 -0.41916388 0.21158904 0.105117925
0.19016466 -0.04570235 0.054262016 -0.04711278 -0.041162543 0.110593945 -0.30602345 0.1867399
0.3413538 -0.10105155 -0.23048145 0.16731878 -0.089011766 0.21811472 -0.021703478 0.26161355
-0.112493046 -0.10221664 -0.1417586 0.24906957 0.081857115 0.2536742 0.15818211 0.065858334
0.13053098 0.14298433 -0.04341387 -0.18423812 -0.25594598 -0.34459698 -0.28453684 -0.2594833
-0.17584856 -0.06584104 -0.11156596 -0.12921531 -0.13559487 0.08747913 0.018827777 -0.21900138
-0.023720099 0.006088937 -0.31801546 0.12010843 0.13165455 -0.25572395 0.19215477 -0.13114913
-0.14897263 -0.36209995 -0.18007378 -0.109940775 -0.14693327 -0.065130964 0.24257536 0.31374243
0.11424696 0.01650682 0.20341273 -0.09164618 -0.2940468 -0.20575418 0.23079428 -0.10336332
0.15078413 -0.015947638 -0.122220196 0.21115671 0.10537256 -0.21298586 -0.027877226 0.08377825
-0.060844835 -0.112742096 0.2702116 -0.2420233 -0.32490057 -0.27336788 -0.11126244 -0.31711343
0.12687363 0.31023824 -0.32737762 0.065518245 0.22745681 -0.20093873 -0.27342305 0.31229898
0.020164795 0.16553625 -0.24230026 0.29056925 0.0292703 -0.13537976 -0.057198443 -0.08655219
-0.2487304 -0.18327709 0.04291206 0.2553038 0.29497978 0.024444424 -0.23970678 0.26354727
-0.15545762 -0.3374948 -0.04423877 -0.1475362 -0.08930544 0.25176635 -0.21011283 -0.24330321
0.030681092 -0.28349853 0.20703048 0.33350173 0.30627882 -0.36646572 -0.32181075 -0.35083959
-0.2277606 -0.31102964 -0.39296913 -0.084271446 -0.2563114 0.1427518 0.16276334 0.14952056
0.21735989 0.0587063 0.10447671 0.15212859 -0.16119969 -0.19179279 -0.15610845 -0.36348337
-0.28236103 -0.39190212 -0.15558763 0.08161078 -0.2761033 -0.24132934 0.2028361 -0.09069475
-0.13053603 -0.27882266 -0.37565005 0.04248251 0.06932291 -0.05884483 0.087297335 -0.21006
0.0056656874 -0.00081724464 -0.064433366 0.10354181 0.142813 0.052927162 0.34934178 0.19732963
0.030054707 0.14973 0.042352088 0.008866417 -0.09368709 -0.1612143 -0.15385455 0.29751617
-0.023136925 0.322898 -0.3196369 -0.10153514 0.10097048 0.14346276 0.23525481 -0.30784318
-0.05621599 -0.3040976 -0.19582264 -0.14351462 0.0642486 -0.009835195 0.15509817 -0.03227839
-0.3152711 0.12990561 -0.36685434 0.08357308 -0.03415457 -0.3612953 -0.22406088 -0.11596064
0.30137664 -0.2512955 -0.36953032 -0.10832597 -0.25242993 -0.17880474 -0.21216841 0.23477155
-0.40147802 -0.25279358 0.114266984 -0.13199684 -0.097726144 0.20358211 0.27880222 0.32544288
0.104667954 -0.2028559 -0.29370257 -0.008870365 -0.007269255 0.181676 -0.28306296 -0.12576754

linear1.bias f4 [512]
00000000: 7b4c 87be c06b 653e 3aee b8bc 7d6c 8fbe
00000010: 2631 28be 9ecb 36be ea70 c83b 9af3 883e
00000020: 93c8 95be 0e46 9ebd aff5 fd3d e341 243e
00000030: 56fc d43d 6685 dcbe eed8 663e 7e36 983e
00000040: 29b6 93be 58ac 903e 01e7 c7bd 5658 2f3e
00000050: 079c 483e 9f72 213e 2177 8ebe aeb6 c0be
00000060: 4b46 c6bd ea79 23bb fd0e 63be 9fb3 8e3e
00000070: 5fe2 c7bd 70ab 0b3d 1669 f7bd 5978 503e
00000080: 7d97 b9be f071 7b3e ad7b 5dbe 5872 f93d
00000090: 27b9 93be cdb5 a8bd b655 aebe 2b15 7ebe
000000a0: 8222 fd3d 8a05 70be dfd9 003e b7a3 133e
000000b0: 3fe5 813e 37b4 a13e 3f00 97be f1a4 233e
000000c0: 8267 82be 5197 c43c a4c8 2b3e ba4e c5be
000000d0: 34f4 893b 9ffa 3bbd 4b67 8a3e c8e6 79bd
000000e0: 4428 19be 8ce0 02be f2f8 c0be b2da 913e
000000f0: cb76 1abe 87c6 86be 8edf ef3d a5ff 623e
00000100: 9500 543e 87fe 29be f3ef 2dbc a7f9 503e
00000110: f98e 8bbe 998b 143e 8361 7fbe b41c 013e
00000120: 10a7 6dbe 3db5 173e 0644 8a3d 851c 9ebc
00000130: ae00 c9bd 6910 20be 7188 283d a0d8 2d3e
00000140: 9acd 90be 7cd9 813e 6ed1 663e 4ad2 9bbe
00000150: 5f2e a3be 2050 49be ff8e 3c3e f681 20be
00000160: 8288 323d 94a7 11be 3d11 6f3d a7d9 acbe
00000170: ad0e f93b bf27 a8bc 11c2 cdbd a8b1 adbe
00000180: b89e 1fbe 604b 473e 1db9 e9be 0274 e6be
00000190: 7ba9 50be a3df b4be 1202 b1be 8069 c93d
000001a0: f3d8 b43a ed96 893e f01f bfbd c762 39be
000001b0: 7863 7dbe f54e 443e 7806 6fbe cc34 7abe
000001c0: a0ca 293e 6ba8 b1be 8173 993e 51c9 a73d
000001d0: e4de 96be 5ce1 203e 3df3 3a3e a29f d7bd
000001e0: 550a ccbe e72b 0d3d b3e1 253e 9b3a 98be
000001f0: d345 a7bd a97d fb3d 83a9 9dbe c9fd a2bd
00000200: 1fd7 90bd 8beb 48be ca16 7cbe b77d 1c3e
00000210: 3fc7 6d3e dbc5 aebd cda9 90be 7c17 57be
00000220: c153 2bbc 9199 863c 847a 943e 2c2e b3be
00000230: b2ef c0bd 1e5c bebd f9c3 04be 9991 693e
00000240: 1ed2 a0be 8fc8 94be e246 87bb d786 e23d
00000250: a562 26be 03bc 4cbd aef2 3bbe c359 e7be
00000260: f37e 72be 98ea 76bd e90c a53d 810a d8be
00000270: 8f31 423e 73d0 e53c 81c5 23bd 68fb 7d3e
00000280: c127 01be 7156 03bd eec5 55be bdb4 da3d
00000290: b3d7 74be 799d 21be f8ee ecbe c0a6 cabd
000002a0: af56 e23b e259 133e aea6 dfbe f6c6 a2bb
000002b0: 2eb1 a03d e31d b9be a90c 85be 9af6 833e
000002c0: d60e b33d 7de7 45be 89c0 203d a83f 823d
000002d0: fbf6 133e 796a e63c 3071 99be 3e52 21be
000002e0: 8195 61be 3335 9e3e 96a6 aebe 9196 ea3d
000002f0: c50d d1be 452e 18be 7a20 8cbe 4cc0 4cbe
00000300: 2981 b7be a09b 0ebe d620 7bbe d0ba 953e
00000310: cb78 adbc 1d78 b73d 0a08 b53c 6025 013d
00000320: 1dcb a73e f5ac 653e 6516 c43d 0002 913e
00000330: e9e3 89be c57a b5be 57eb 27bd b215 afbd
00000340: 2d79 38bd 7460 8dbe 0fcc 91be bda8 9d3e
00000350: 968a 18be d3d6 abbe ab0d 97be a29a 57be
00000360: 5106 cdbb b9de f4be 5e98 1c3e 6966 41bd
00000370: 5876 33bd 6dfc 2cbe 8ea8 483e 38db 933d
00000380: f87b 80bc c8f0 a9be 03bd 943d 719d ae3d
00000390: a761 673d 71e8 b7bd 4e77 c2be b8b6 82be
000003a0: fedf f7bd b467 71be 9695 283d 14fc 953e
000003b0: 45a8 333e b1b4 0ebe a8b8 53be 04a8 e6bd
000003c0: 65a1 723e 5d91 78be f3db 463d baf0 a3be
000003d0: 9dca 913e dff6 38bd d5e7 493a 5341 5cbe
000003e0: 0670 febd eb17 d23d 9b60 89be 5b8d 42be
000003f0: c093 023e 28b8 513e 2027 e73d d4b7 0b3d
-0.26425537 0.22404385 -0.022574533 -0.28012457 -0.16424999 -0.17851111 0.006116976 0.26748353
-0.29254588 -0.077282056 0.12400376 0.16040759 0.10399692 -0.43070525 0.2254369 0.29729074
-0.28849915 0.28256488 -0.097608574 0.17123541 0.1959077 0.1576638 -0.27825263 -0.37639374
-0.09681376 -0.0024944493 -0.22173686 0.27871415 -0.09759974 0.034099042 -0.120805904 0.20358409
-0.3624839 0.24555182 -0.2162921 0.121800125 -0.28852198 -0.08237801 -0.34049767 -0.24812762
0.123600975 -0.23439613 0.12583111 0.14417921 0.25370213 0.31582806 -0.29492375 0.15980889
-0.25469595 0.023997935 0.16775757 -0.38536626 0.0042100195 -0.045893308 0.2703193 -0.061011106
-0.14956766 -0.1278097 -0.3768993 0.28487164 -0.15084378 -0.2632334 0.117125615 0.22167833
0.20703347 -0.16601 -0.01061629 0.20407735 -0.27257517 0.14506377 -0.24939542 0.12608606
-0.2320826 0.1481523 0.06751256 -0.019300709 -0.09814583 -0.1563126 0.041145746 0.16977167
-0.28281862 0.2536124 0.22540829 -0.30433875 -0.31871316 -0.19659472 0.18413924 -0.15674576
0.043587215 -0.14224082 0.05836605 -0.33759806 0.0076006264 -0.020526765 -0.10046781 -0.33924603
-0.1558789 0.19462347 -0.45649043 -0.45010382 -0.20377152 -0.3532687 -0.34571892 0.09834576
0.0013797566 0.2687296 -0.093322635 -0.18104087 -0.24744976 0.19170745 -0.23342311 -0.24434203
0.16581202 -0.34698805 0.29970935 0.08192695 -0.29466927 0.15710968 0.1825685 -0.105284944
-0.39851633 0.034465697 0.16199379 -0.29732212 -0.08167615 0.12279827 -0.3079339 -0.07958562
-0.07072281 -0.19621103 -0.24618068 0.15282331 0.23220538 -0.08533832 -0.28254548 -0.21005052
-0.01045698 0.016430648 0.28999722 -0.34996164 -0.09420718 -0.09294914 -0.12965383 0.22809447
-0.31410307 -0.29059264 -0.004128323 0.11060875 -0.16248567 -0.04998399 -0.18354294 -0.4518567
-0.2368124 -0.06028232 0.08059103 -0.42195514 0.18964218 0.028053498 -0.039983276 0.24802935
-0.12612821 -0.03206486 -0.20876285 0.10679004 -0.23910408 -0.15782727 -0.4627607 -0.09895086
0.006907306 0.14389756 -0.43681854 -0.0049675656 0.07846294 -0.36155614 -0.2598622 0.2577408
0.08743064 -0.19326587 0.039246116 0.06359798 0.14449684 0.028126942 -0.29969168 -0.15754029
-0.22029687 0.30899963 -0.3411147 0.114544995 -0.40830818 -0.148614 -0.27368528 -0.1999523
-0.3584073 -0.13926554 -0.24524245 0.2924409 -0.021175763 0.08958457 0.02209856 0.031529784
0.3277215 0.22429259 0.09574584 0.28321838 -0.26931694 -0.35445228 -0.040995922 -0.0854906
-0.045037437 -0.2761265 -0.28475997 0.307928 -0.14896616 -0.33562335 -0.29502615 -0.21055081
-0.0062568565 -0.47826174 0.15292498 -0.047216807 -0.043814033 -0.16893168 0.19595549 0.07219547
-0.015684113 -0.33191514 0.072626136 0.08526123 0.056489613 -0.089798816 -0.37981647 -0.25530028
-0.1210327 -0.23574716 0.04115828 0.29293883 0.17544658 -0.13936116 -0.2067591 -0.11262515
0.2369438 -0.24274202 0.048549604 -0.32019597 0.28474894 -0.04515731 0.0007702087 -0.21509294
-0.124237105 0.10258468 -0.26831517 -0.18999235 0.12751675 0.20480406 0.112867594 0.03411086

linear2.weight f4 [2, 512]
00000000: 7f50 943c c920 e2bc 5214 033d 1c1b c3bc
00000010: 9f45 603c adc2 a6ba 2e1f 2f3b 4c1a 3a3d
00000020: 307a fa3b 642f fdbc 8179 8b3c 5a6d b3bc
00000030: c622 4cbd 7763 573c a4e3 0fbd 2b3a aebb
00000040: 0873 cdbb 60dd ecba 186c 373c 73d5 0b3d
00000050: 9f58 39bd 4edc 0abd 983b 1f3c 1d5f 93ba
00000060: 4326 863c 14a8 903c 3333 e03c 1e5a 1c3d
00000070: 31bd aabc c351 e6bc 43db bf3b 5664 da3a
00000080: 4776 f33c 6656 2d3c 81aa ad3c fa0a 50bc
00000090: dfc3 f13c f94b 33ba 4a65 623c cdde 96bb
000000a0: 5181 05bd 42b3 80bc e421 f53c bf43 093d
000000b0: baac 1abc 9c4e 1e3c f72f 203a 50d2 b9bc
000000c0: ba72 9b3b 2ea0 0abd f786 ef3c 9879 583b
000000d0: a4a0 043d bde8 0cbd 442f 2cbd 9184 573c
000000e0: ee00 d73c 5a5c debc fcfa fabb a6b0 f5bc
000000f0: bb32 a739 4bce 2bbd 32fe 853c c7f1 72bc
00000100: 65ea 11bd b1c1 053c 5ece 093d 3037 d73c
00000110: 889c 033d c996 163c 585d 773b 4df9 103c
00000120: 13de 3bbd 152c 543c b172 b43c 261b 5bbc
00000130: 990d 33bd 1ff2 053c 1ea7 80bc 03f1 9f3b
00000140: 6077 833b 893e 103d 3db5 f3bc 6e67 09bd
00000150: 2db8 bbbb f69d a23a c9e8 68bb 57cb cf3c
00000160: 8a77 b93c dff4 adbc f56c 713b 13bd 1b3c
00000170: 63ca d03c ef61 2dbd 2719 7fbb d402 83bc
00000180: 2013 933c 32cb 37bc 67d6 d4bc 074b 4b3c
00000190: a76c a13c 1b07 863c c333 9cbc b749 6a3c
000001a0: 2fab dabc 6495 06bd 69f7 a5bc d669 b0ba
000001b0: fa46 21bc 4ed9 08bd 3be7 633c 528a ae39
000001c0: 3e08 d1bc bfcd 0b3c 660a 06bd c6fe cb3a
000001d0: b7d4 2ebd bf99 013d 5839 3f3c f5db 5b3a
000001e0: 35fc a83c e5b4 0e3d 09b6 8fbc 3b1d 84bb
000001f0: 9df8 7cbb 3b0f b63b 45ca 0f3d dfb7 b1bb
00000200: 2cd5 febb f2e7 043c bdcd 383c 165c a03c
00000210: fb1d 803c 2cd2 043d d78f 08ba 3ab1 9ebb
00000220: 9888 22bd 6651 773c c910 bd39 c5e4 b93a
00000230: e7d4 13bd 5bed af3b c764 063d 39e5 a53c
00000240: 9666 173b 48ea 263c 8c10 acbc 811d 17bd
00000250: 1cdd bdbb e18f ea3c 045d 8c3c e63c 953c
00000260: fe4d 813c 4dad 4b3b 3b7e eb3c d5e0 a8bc
00000270: 9ed2 2bbc 2a36 923c 4bc2 69bc d9dd 883c
00000280: a29a 6c3c 9df5 803b d03c 6f3b 3526 a1bc
00000290: 870c 53bc 4ab8 07bd c06c 63bc 4523 0abd
000002a0: d64a 87bc c6fd 503c 2596 75bc 4530 b3bc
000002b0: 1170 65bc c8e0 fa3c 2249 a53c 87c0 f83c
000002c0: 141d 00bb 8f10 833c 222b dd3c 6da3 743b
000002d0: 082a 36bb 402f 99bc 729f cd3c 7671 2c3d
000002e0: a556 ef3c 7905 1c3c 172e 32bd c72b 49bd
000002f0: 3c09 fb3b 8aaf 873c 8f6a 06bd 68b2 8fbc
00000300: 9817 3c3c ded2 1abc 9134 f33c c58d 34bd
00000310: ea4a 4b3c 2fe0 f03c bd2d 38bd 8cd6 bbbc
00000320: 299e e23c d3c0 8bbc 82ff 34bc ede6 033d
00000330: 9f9f 09bd 2831 19bd d7b6 bdbc 1362 fe39
00000340: f602 dfbc 972c a0bc 0dd7 223d 39db be3a
00000350: 506d 46bd 0f4a ccbc ccf8 f73c c64c c13c
00000360: a2bc a8bc 09ae aa3b 3342 94bc 247a 07bc
00000370: d8a1 333c fc24 063d cc21 d53b e812 d83c
00000380: 4acc 02bd f9f3 173c 6ea9 cfbc e78e 003d
00000390: 1747 76bc a5cc 913c aa38 953c 6e26 0ebd
000003a0: aef9 1cbc 0c8a 9dbc 464f 02bb 74f1 aa3b
000003b0: abdf 20bd b7d8 d53b 6035 22bd 9fe3 a8ba
000003c0: 04ad a33c 697d 0bbc e7d2 1fbd bd16 55bc
000003d0: 7850 7dbc 813d c5bb 45f6 fc3c 508f 24bb
000003e0: 2ffa e43c 50f3 cebc 05fe 87bb 5d76 b53c
000003f0: b75f 14bd b451 213d 2639 1c39 5825 e4bb
0.01810479 -0.027603524 0.0320018 -0.023816638 0.013688474 -0.0012722813 0.0026721465 0.045435235
0.0076439604 -0.030906387 0.017025711 -0.021902729 -0.04983785 0.013146273 -0.035129204 -0.0053169928
-0.0062698163 -0.0018071346 0.011195205 0.034139108 -0.04525053 -0.033901505 0.009718798 -0.0011243556
0.016375666 0.01765827 0.027368164 0.03817188 -0.020842167 -0.028115159 0.0058549955 0.0016661983
0.029719485 0.010579681 0.021199467 -0.0126979295 0.029512344 -0.0006839629 0.0138180945 -0.0046041966
-0.03259403 -0.015710477 0.029923387 0.033511873 -0.009440595 0.009662297 0.0006110663 -0.022683293
0.004743901 -0.033844166 0.029239161 0.003303146 0.03237976 -0.034401644 -0.042037264 0.013154165
0.02624556 -0.027143646 -0.007659314 -0.02999146 0.0003189052 -0.041944783 0.016356561 -0.014828152
-0.035623927 0.008163855 0.033644073 0.026271433 0.0321317 0.009191223 0.0037744846 0.0088485
-0.045866083 0.012949963 0.022027345 -0.013373172 -0.04371414 0.008175402 -0.015704688 0.0048810258
0.0040120333 0.03521589 -0.029749507 -0.033545904 -0.0057287426 0.0012406695 -0.0035539141 0.025365515
0.022640008 -0.021234928 0.0036838625 0.009505528 0.02548713 -0.042329725 -0.0038924904 -0.01599256
0.017953455 -0.011217879 -0.025981141 0.012408025 0.01970513 0.01636081 -0.01906765 0.014299802
-0.026692955 -0.032857314 -0.020259576 -0.0013459276 -0.009843582 -0.033410363 0.01391011 0.00033290923
-0.025516625 0.00853294 -0.03272476 0.0015563599 -0.04268333 0.031640764 0.011671387 0.0008386963
0.020628074 0.034840483 -0.017542856 -0.004031805 -0.0038600334 0.005556015 0.03510501 -0.0054235305
-0.007776877 0.008111941 0.011279521 0.01957516 0.015639296 0.032426998 -0.0005209422 -0.0048429044
-0.039681047 0.0150950905 0.00036061395 0.0014182559 -0.03609171 0.005368871 0.032810953 0.020250903
0.0023101917 0.010187693 -0.021003984 -0.03689337 -0.0057941806 0.02863306 0.017134197 0.018217515
0.01578426 0.0031078637 0.028746715 -0.02061502 -0.010487227 0.017848093 -0.014267514 0.016707348
0.014441164 0.0039355294 0.0036504753 -0.019671539 -0.012881405 -0.033134736 -0.0138809085 -0.033725042
-0.016515177 0.012755817 -0.0149894105 -0.021873603 -0.0140037695 0.030624762 0.020176474 0.030365242
-0.0019548582 0.015999107 0.026998106 0.0037328855 -0.0027796049 -0.018699288 0.025100444 0.042100392
0.02921612 0.009522789 -0.043500986 -0.049114015 0.007661013 0.016563196 -0.032816466 -0.017541125
0.011480235 -0.009449689 0.029688152 -0.044080514 0.012407998 0.029403774 -0.044965494 -0.022929452
0.027663307 -0.01705972 -0.011047246 0.03220265 -0.033599492 -0.037400395 -0.023158474 0.00048519726
-0.027223092 -0.019552512 0.03975587 0.0014561183 -0.048444092 -0.024937658 0.030270003 0.023596179
-0.02059776 0.005208735 -0.018097972 -0.008268867 0.0109638795 0.032750115 0.006504273 0.026376203
-0.031933106 0.009274476 -0.025349345 0.031386282 -0.015031598 0.017797777 0.018215496 -0.03470462
-0.009581013 -0.019230865 -0.0019883676 0.0052167717 -0.039275806 0.0065260786 -0.039601684 -0.0012885219
0.019979961 -0.008513787 -0.03901949 -0.0130059095 -0.01546108 -0.0060192947 0.03087915 -0.0025109835
0.027951328 -0.025262505 -0.0041501545 0.022151167 -0.036224093 0.03938456 0.00014898609 -0.0069624595

linear2.bias f4 [2]
00000000: 1666 af3c fa2b 9f3c
0.021410983 0.01943015
