model/model.pth (torch, 26432 bytes, 4 tensors)

linear1.weight f4 [512, 9]
00000000: f724 aa3e bedf 683e d61c 0cbe eb01 ee3c
00000010: de20 8abe 2042 5dbd 6b4a 083e 600d 673e
00000020: 5bf9 acbd ee3a a4be a3bd e53c 4028 3b3d
00000030: 0644 9ebe 95bf 86ba afbf 49bb 306f a3be
00000040: 14c5 b5be 2f62 9dbe c0a7 8f3c f704 93be
00000050: 27d9 993e 5b2c 153e e6b8 b5be ee3c 8bbe
00000060: ebba 8f3d 8c73 87be 04b3 8abe de83 25be
00000070: 3f77 b23b febc 8c3e 7b18 0bbf 0367 b3ba
00000080: 4f2b 8abb db26 c83e 10d0 08bd 9d04 e43c
00000090: 40a8 543e 8028 96be 26ca f1bd f365 afbe
000000a0: 8c79 c2be 4d25 a5bb 02fd 04be 5653 a7bb
000000b0: f896 1bbe 7f79 9a3e 37dc 06be 3084 a43e
000000c0: 782c 2d3d 5809 02be d68c d0bd af0d aabe
000000d0: 325c 7c3c f8a9 a8be 337c 933e ada8 94be
000000e0: f0fa 8fbd 051e bdbe f04e b5bd 677f 94bd
000000f0: 1eb2 70be 2ee4 303e 6c27 a73e fb6a 923e
00000100: 70a8 96be fc54 a6be fecd 48be 63c5 afba
00000110: bf8d 7fbb 8436 4a3e fdf5 11bc 7cd1 f4bd
00000120: 6802 a93e ce5d 503e ab0d a83e 9ac0 4a3e
00000130: 51be 76be 2718 9aba 03fc 6bbd c033 d5bd
00000140: 8664 293e e696 06be ee4e 8abe dbfe 86bd
00000150: efaf 28be 4007 a7be ce09 a2bb d5ab 77bc
00000160: 8083 9bbc 407a 70be 2b8f 433d 1262 513e
00000170: d6d2 a5bd a436 0abf 8fdb 973a fe4f 4b3a
00000180: 03be 8dbd c522 42be 774a c5be 106b 90be
00000190: 00da 723d 70ab 19be d5b5 6abe 3082 0fbd
000001a0: edef bc3a a8fe 9fbe 98c7 213e 80a6 21bc
000001b0: 487c 0c3e 0af2 a93e 1b07 843d f0eb 883d
000001c0: 3344 b2be 7af5 b1bb bc68 813e 7a7d 87be
000001d0: a561 02be 6082 903e 1168 cabe 3c31 a63e
000001e0: 8306 9dbe 49fa 1bbe 2e91 fdbd 56bf 05be
000001f0: 5679 9cbe 6bd4 ce3d b227 893e 52d9 43be
00000200: d084 c7bd 05f8 acbe bfbb a5bb 26b0 1bbc
00000210: 80b7 ccbe 5bf1 13bf b186 21bf e0fb eb3d
00000220: 9899 6f3e d648 463e e980 f33d 836b 36bc
00000230: 6dbb a5bb fae6 3c3e 4693 5f3e f576 4b3e
00000240: 5b60 39be 8bb7 d23d fb10 2dbe 3616 fe3d
00000250: 5646 9abe 2b53 70bc 4cd1 a1be 18e6 6bbe
00000260: 6b79 683d a34a 7d3e 0418 1cbd 00b4 d6bb
00000270: 331d 493b 727f b8bb 175f 84bb a392 1cbb
00000280: 41d6 57bd d5a6 8bbe 5b2f 58be 1347 5dbe
00000290: a6a6 993e de46 b2be e06a 34be e3ae 89b7
000002a0: 0a4e 96be 2bd8 68bc 8d29 783e 02dc a7be
000002b0: 2b96 923d c03c 243d 4118 b0bc 5e28 74be
000002c0: 06b5 723a beba 30bf 76ca 54be 3d5c 95bd
000002d0: d676 633c 3699 8abd 587a 8bbe b862 84bb
000002e0: 513a 8fbd 00a4 17bd 164c b3bc 0373 1ebe
000002f0: c69e bb3d 733b 88be 40da a0bd 9046 d63d
00000300: f16a f2bb 6472 243e aa2c 70be 5b6e c5bc
00000310: 53c8 00be 90bc ad3c 0846 6dbe 9c03 053d
00000320: c669 41be 65a2 aabe 675c 83bd 6d41 62bd
00000330: 9b39 babd 9b08 92be e667 99bd 17de 813e
00000340: 560d a0bd 9054 e3bd f852 d5be b23d 34be
00000350: 7c25 7dbc a1a2 79be 56ac d33c 7975 903e
00000360: d334 52be d34e 8f3e 7002 10be fca1 22be
00000370: 2157 c7be aa69 88bc bb52 85be 48c1 373e
00000380: ff2d 5c3e 76ee 06be 25ee 6fbe 2876 16be
00000390: 4c74 f93b 9692 77be 1de2 4abe 30d3 ef3d
000003a0: ac84 c0be 5c83 92be 06e3 813e a3c3 73bc
000003b0: 6867 a63e 95b6 4b3c 1b49 84be f0b4 5fbe
000003c0: 4026 0fbd 7a92 1abe a6a9 273e 8888 4abe
000003d0: 5867 46be b026 473e abab 823c 0ba1 29be
000003e0: 6859 00be 33e6 4ebe b0b5 2cbe 93d6 503e
000003f0: b0e1 653e 2010 acbd d6f4 ae3d 3736 3abe
0.33231327 0.22741601 -0.13682875 0.029053649 -0.269782 -0.05401814 0.13309638 0.22563696
-0.08445998 -0.3207621 0.028044527 0.045692682 -0.30911273 -0.0010280485 -0.0030784418 -0.31920767
-0.3550192 -0.3073897 0.017536044 -0.28714725 0.30048487 0.14567702 -0.3549263 -0.27194923
0.07018074 -0.26455343 -0.27089703 -0.16163585 0.005446344 0.2748794 -0.5433423 -0.0013687316
-0.0042165886 0.39092144 -0.03340155 0.027834231 0.20767307 -0.29327774 -0.11806135 -0.3425747
-0.37983358 -0.005039847 -0.1298714 -0.00510637 -0.15194309 0.3017082 -0.13169943 0.321321
0.042278737 -0.12698877 -0.10183112 -0.33213565 0.01540284 -0.32942176 0.28805694 -0.2903494
-0.070302844 -0.36936966 -0.08852947 -0.072508626 -0.23505446 0.17274544 0.32647264 0.28597245
-0.29425383 -0.32486713 -0.1960983 -0.0013410266 -0.00389944 0.19747359 -0.008908746 -0.119540185
0.33009648 0.20348284 0.32822928 0.19800034 -0.24096037 -0.0011756466 -0.057613384 -0.10410261
0.16542253 -0.131435 -0.27013344 -0.065915786 -0.16473363 -0.3262272 -0.0049450165 -0.015116652
-0.018983603 -0.23484135 0.047743957 0.20447567 -0.080968544 -0.53989625 0.0011585819 0.0007755755
-0.069210075 -0.18958576 -0.38533375 -0.28206682 0.059289932 -0.15006804 -0.22920926 -0.035036266
0.0014414765 -0.31248975 0.15798795 -0.009866357 0.13719285 0.33192474 0.06446668 0.066856265
-0.34817657 -0.0054308744 0.25275218 -0.2646292 -0.12732561 0.28224468 -0.3953252 0.32459438
-0.3066903 -0.15232195 -0.123812065 -0.1306127 -0.30561322 0.10099109 0.26788098 -0.1912587
-0.09742129 -0.33782974 -0.0050577815 -0.009502446 -0.3998375 -0.57790154 -0.6309615 0.11522651
0.23398435 0.19363722 0.11889822 -0.011134031 -0.0050577433 0.18447486 0.21833524 0.19869597
-0.18103163 0.10288914 -0.16901009 0.1240658 -0.30131787 -0.014668266 -0.31604993 -0.23036993
0.05675642 0.24735503 -0.03810884 -0.0065522194 0.003068757 -0.005630427 -0.004039656 -0.0023891113
-0.052694563 -0.2727572 -0.21111815 -0.21609144 0.30009955 -0.34819692 -0.17618895 -1.641311e-05
-0.29356414 -0.014211695 0.242346 -0.3278504 0.071575485 0.040097 -0.02149594 -0.23843524
0.0009258542 -0.69034946 -0.20780358 -0.07292984 0.013883313 -0.06767504 -0.27241778 -0.0040400885
-0.06993545 -0.037021637 -0.021886867 -0.15473561 0.09161143 -0.26607856 -0.07854128 0.104626775
-0.0073980023 0.16059262 -0.23454538 -0.024100473 -0.12576418 0.021208078 -0.23171246 0.032474145
-0.18888006 -0.33327022 -0.06414109 -0.055238176 -0.090930186 -0.2852219 -0.0749052 0.25364754
-0.07815044 -0.111001134 -0.41664863 -0.1760166 -0.0154508315 -0.24378444 0.025839012 0.28214625
-0.20527963 0.27989826 -0.1406343 -0.15882105 -0.38933662 -0.016651947 -0.2603968 0.17944825
0.21501921 -0.13176903 -0.23430689 -0.1469351 0.0076127406 -0.24177012 -0.19812818 0.11710203
-0.3760122 -0.28615844 0.25368518 -0.014878186 0.32500768 0.012433668 -0.25837025 -0.21846366
-0.034948587 -0.15094939 0.1637331 -0.19778645 -0.1937536 0.19448352 0.015950998 -0.1656534
-0.12534106 -0.20205002 -0.16866183 0.20394354 0.22449374 -0.08401513 0.085427925 -0.18184744

linear1.bias f4 [512]
00000000: 964f cbbd a68a 9cbe f911 91be b028 fbbe
00000010: 9eed 40be 0ea5 53be 05b9 883d 2531 84be
00000020: dd44 07bd 51aa 58be 5b52 23bf 2376 8fbe
00000030: 9d95 2ebe a585 a5be aabe 26be e919 a0bc
00000040: abaa 8a3b c3a0 6bbe 08bb 693e 1642 c7be
00000050: e955 3fbe f591 7cbe 84a3 0fba 1a4c eabd
00000060: 74e9 38be b000 aabe 62c3 a9be 28dc 763e
00000070: 5bce 18be 7044 e03d ebc9 f9bc fb7c 15bf
00000080: 6d63 b9be 8594 83bd a7ba 03be ab74 f23c
00000090: 48c6 88be 02db d2be 7478 bd3c f60a 8e3d
000000a0: b767 95be e8ad c4be 4ae2 453e 65f6 7ebe
000000b0: 78ad 633d 7334 0b3e 07cf d1be 9639 f0bd
000000c0: b342 89be e0fe d8be 96dc ce3c 9ebe 24be
000000d0: fcbb fdbb 5732 98be 2c81 c2be b2ab b8be
000000e0: 118e 02bf 1cee 223e baed 86bd e565 9fbe
000000f0: 6550 13be b439 6fbd 9567 5dbd 6aed dcbe
00000100: 2b88 01bc 45b6 f1be 8f7b 8ebe 6ee3 1abe
00000110: 4f92 ac3d cdb9 5abe d8cc 07bd 2f9d 95be
00000120: fb6f e93d 1fd9 15bc 910b 9c3d 8be1 d6bd
00000130: f6e1 c3bd 416c 2bbf 1ea6 c0be 7321 c9bd
00000140: 35f7 d9bc ba44 07bf 1f9a babe 42d6 c53a
00000150: 9f74 403e 10a2 d7be 0c08 c5bd 3e06 913d
00000160: 813c cc3d 08da f1bd 6f55 11bd 798d 97bd
00000170: fdd8 d73d e84b fcbd 0689 eb3c 8b99 903e
00000180: 7596 c1be 1d20 39be 8873 69be da9b abbe
00000190: ce68 2d3e 4208 19be 5dee 233e 923f 4bbf
000001a0: 93cb 1b3c 9896 95be bfc0 15be e34b 8d3d
000001b0: e257 d3be fb9d ccbe 4553 2fbe 7402 3fbd
000001c0: 5530 26be c100 85be 0ff2 023e a9eb 9c3d
000001d0: 5645 8dba c3af d5bd 8915 37be 1026 d4be
000001e0: c14a a43d 6eb8 f3bd 8023 40bf 9dbc c73c
000001f0: a353 dabe eb59 3f3e 895b d33d 16dd b4be
00000200: bf67 53bd 28ad 76bc 995e fbbd 94e9 adbe
00000210: ad6b 44be a3ea b2bb 1db0 473e d6b4 47be
00000220: 00cc 203c 005a d13b af38 88bb 3e0d a7be
00000230: 51dd 16be c092 1f3e 0590 e7bb 9e5b 78be
00000240: f11a 5a3e 488d 023e 7463 063e 1b39 cfbe
00000250: a531 acbe 10f6 d0be 2125 9f3b c071 bc3c
00000260: 9907 75be 96f8 d93c db6d c93c 79bf f2be
00000270: ea22 013e 0ee0 56bd befb 14be 1021 f73d
00000280: c673 34be f0b1 2c3d b2c4 103e 2d2d e8be
00000290: 93cd cfbd f43c 0dbf 8a55 e0bd 9181 833d
000002a0: 2b4f 31be ea20 44be 704f a5be f806 1f3e
000002b0: 7021 2fbe 2347 8e3e a8e8 23bd 6633 0f3d
000002c0: 6480 89be 16eb bcbc 1c5c 7c3e 6bd9 ee3c
000002d0: 4967 41bd 554f d9be b303 ce3d cb38 09be
000002e0: 1a7e 2abe 17b7 15bf 0ee6 98be dcbc 48bf
000002f0: 3b50 a4be f7fa 03bf 2983 2abe a104 e8be
00000300: 6564 3dbe e659 d9be 1d79 2b3e 98ec a6be
00000310: f5f1 a1be d2c0 05bf fffe e5bd 74ab 26be
00000320: 74f0 cbbe efed 7e3d dcba ee3d f00e 68be
00000330: 596e e9be f62c cdbd 5e7c cc3d 96b3 a13d
00000340: 996d 6dbd 8b79 1cbe b62e edbe a064 6d3c
00000350: 664a c3bd f81a 0fbe e50d 2fbf 9e6c 64be
00000360: e7e0 b6be d662 08bc c2a4 30bf 82b5 c5bb
00000370: 4397 f0bd 6a61 4b3e 50bb ccbd 8b39 e2be
00000380: df2f aebe 9916 bbbe 7395 853c 80f9 7d3d
00000390: 77d4 babe 9c28 aebc 3929 e0be 80b8 c3be
000003a0: 266c 8bbe 1ac9 3bbd 4690 c4be 9b17 72be
000003b0: f510 1cbf e24d 71be 0ff7 04bf 072e 883e
000003c0: 0df1 1a3e 66da 31bc 5131 70bc 0570 72be
000003d0: aae3 743d f242 9abe 0f9d 2ebf 10f7 4e39
000003e0: eac1 c53d 976d 613a 279e 09bf 64c9 86be
000003f0: 7808 7bbe d6cd f2be c48d 2d3e cf54 a0bd
-0.09927289 -0.3057453 -0.28334025 -0.4905448 -0.18840644 -0.20668432 0.06675915 -0.25818744
-0.033024658 -0.2115872 -0.6379754 -0.2801982 -0.1704926 -0.32328525 -0.1628367 -0.019543605
0.004231771 -0.23010544 0.22825253 -0.38917607 -0.18685116 -0.24665053 -0.0005479383 -0.114402965
-0.18057805 -0.3320365 -0.33156878 0.2410742 -0.14922468 0.109505534 -0.03049179 -0.5839383
-0.36208668 -0.06424812 -0.12864171 0.029596647 -0.26713777 -0.41182715 0.023128726 0.069356844
-0.2918069 -0.3841393 0.19324604 -0.2489868 0.055585355 0.13594227 -0.40978262 -0.11729734
-0.268087 -0.42381954 0.025251668 -0.1608834 -0.0077433567 -0.29725906 -0.37989175 -0.36068493
-0.50998026 0.15911144 -0.065883115 -0.31132427 -0.14386137 -0.05840464 -0.05405386 -0.43149883
-0.007906 -0.47209373 -0.27828643 -0.1512582 0.08426344 -0.2135994 -0.03315434 -0.29221484
0.11398312 -0.009146004 0.076193936 -0.10492238 -0.09564583 -0.6696206 -0.37626737 -0.09820833
-0.026607135 -0.52839243 -0.3644571 0.0015093761 0.18794487 -0.4211583 -0.096206754 0.07081269
0.09972478 -0.11809164 -0.035481866 -0.07400031 0.10539434 -0.123191655 0.028751861 0.28242144
-0.37810102 -0.18078656 -0.22797978 -0.33517343 0.16934511 -0.14944556 0.16008897 -0.79393876
0.009508985 -0.29216456 -0.14624308 0.0689924 -0.41277987 -0.3996428 -0.17121609 -0.0466332
-0.16229375 -0.25977138 0.1278765 0.07662136 -0.001077811 -0.104339145 -0.17879309 -0.4143529
0.08022071 -0.119004115 -0.7505417 0.02438193 -0.42641935 0.18686645 0.10320193 -0.35324925
-0.05161261 -0.015055932 -0.122739024 -0.33967268 -0.191817 -0.0054601 0.19500776 -0.19502577
0.009814262 0.0063889027 -0.004157148 -0.3262729 -0.14732863 0.15583324 -0.007066729 -0.24253699
0.2129934 0.12749207 0.13123876 -0.40473256 -0.33631626 -0.4081273 0.004856721 0.023003459
-0.2392868 0.026607793 0.024588516 -0.47411707 0.12610975 -0.05245977 -0.14549157 0.12066853
-0.17622289 0.042161882 0.14137533 -0.45346966 -0.10146632 -0.5517113 -0.10953815 0.06421197
-0.17315356 -0.1915318 -0.32287169 0.15530002 -0.17102599 0.27788648 -0.0400168 0.034961127
-0.26855767 -0.023061316 0.24644512 0.029156407 -0.04721764 -0.42443338 0.10059299 -0.13400571
-0.16649666 -0.584825 -0.29863018 -0.78413177 -0.3209246 -0.51554817 -0.16651596 -0.45316032
-0.18495329 -0.424514 0.1674542 -0.32602382 -0.3162991 -0.52247345 -0.11230277 -0.16276342
-0.3983189 0.06223863 0.11656734 -0.22661948 -0.45592 -0.10018341 0.09984659 0.078955814
-0.05796585 -0.1528074 -0.463247 0.014489323 -0.09535675 -0.13975132 -0.68380576 -0.22307059
-0.35718462 -0.008324346 -0.690014 -0.0060336003 -0.11747601 0.1986138 -0.099966645 -0.44184527
-0.34020898 -0.36540678 0.016306615 0.06200552 -0.36490223 -0.021259598 -0.4378145 -0.382267
-0.27230948 -0.045846082 -0.38391322 -0.23641817 -0.60963374 -0.23564866 -0.5193948 0.26597616
0.15131016 -0.010855293 -0.014660195 -0.23675545 0.05978743 -0.301292 -0.682084 0.00019737729
0.09656127 0.0008599399 -0.53756946 -0.26325524 -0.2451495 -0.47422665 0.1694861 -0.07828676

linear2.weight f4 [2, 512]
00000000: 5c29 8cbc 85c0 d4bb 9302 58bb d5ae e5ba
00000010: cdc0 d7bb abc3 bf3c 1830 0aba 7fe3 a7bb
00000020: c09d 0ebb c6d7 b0bb 7172 0a3c d123 2ebd
00000030: b0ec bcbc fcb4 24bc 48af 0dba 4270 0e3a
00000040: 63b8 6ebc e050 f6ba e159 c1bc 8012 6a3c
00000050: ed1e 913c 85a2 31be c8b3 f8bb aa1f 92b9
00000060: 2794 6ebc 9fea 87bb aa39 043c 85f6 1e3d
00000070: 9e91 14bd 479a 34bd ea50 133c 3d4d 323b
00000080: 6d5f 50bb 6c54 10bc 3a93 8e39 5fc7 26bc
00000090: c6e9 0dbc 2cca 88bc ebf5 bab9 2652 1a3c
000000a0: d654 08bc 3b84 2f3c dbeb b5bc b761 8ebc
000000b0: ceb0 40bc 9081 37ba a07a b7bb d2a7 34bd
000000c0: 1de0 9cbb 1ea0 afbd 7ced 05ba 1c8e e03c
000000d0: 4b8b 35bb ecdf 4bbb 78fa 44bb 005a 24bc
000000e0: 1087 2a39 09bc 81bc c94b 773a 34bd 9db9
000000f0: 93a1 1b3d 15c3 0e3a 90a1 56bb 29a6 a4bb
00000100: d07d 1ebd 1146 3fbc 9f38 d3ba 74e6 9f3b
00000110: 8aa4 c0bc 4250 ebbb 0cc8 523b 7d37 15bb
00000120: 8445 d9bc c863 2c3b d703 103c 6dc3 f4ba
00000130: 21ae 863c f78c 45bd c3d4 35bc 4ab1 debb
00000140: 65ee d83b a0d0 2a3a ac42 623b aa07 50bc
00000150: 8424 b738 d52d 24bc 2963 98bb 3c2c abbc
00000160: 91bb 8c3c 4318 043c 54fa d5bc 7845 32bc
00000170: 0eb4 083c d8c4 bebc f61a a0bc 92e3 303d
00000180: 3988 18bb 7da2 e23b a129 12bb 7a8e eabb
00000190: 4fd4 a0bb 0bb3 60bc 899d 00bc b66a 39bd
000001a0: fb0a ec3c 3094 e6bc 7ec9 b13a 7265 cf3b
000001b0: a4c8 3fbb c15b 6abc e415 833a 1a61 81bc
000001c0: 3864 edb7 3504 81bb 605e 79bc f6cb 0fb9
000001d0: f74b 8c3c 9956 cd3c a9d1 d03c 27dc 7b3b
000001e0: fe2f 0fbc 5ebf e03c 7791 b6bc 06e3 32bb
000001f0: 9944 2a3c 7321 6fbc 59f3 ae3c 49cb e2ba
00000200: 2057 7bbb 1e8e bdbd 2b1f 89bc 334f fe37
00000210: 1b51 cdbb 8660 253c 8865 823c 4653 7dbb
00000220: 0141 a5bc de85 fe3c 1d03 a23c fd71 84bb
00000230: a79a 06bc 18c8 1c3d 4b6c 8c3b 21ae 1cbb
00000240: 322c a83a 6082 04bd 8444 c03a b57c 72bc
00000250: ab67 1bbb 1ce6 81bb 2c71 c4ba 63b2 18bc
00000260: b173 69bb 5261 91bc edf0 81ba 6312 44bc
00000270: bb3c 8239 95ef aeba ff87 323c de76 023d
00000280: 46d1 af3b 6ea5 ca3c 2930 c5bc d80a b7bc
00000290: 3409 043c 1aaa 28bb 0d01 0d3d 23b9 81bc
000002a0: 910e 623d c1ef d337 a474 bf3b 86bf ea3c
000002b0: a66b 20bc 423a 1cbd 39bc 45ba 976f 54bc
000002c0: 7104 193b 2cf6 b4bb d446 fb3b aa76 aa3c
000002d0: 7470 0fbc 5a2e 5e3b ab15 ce3b 5e58 8bbc
000002e0: 0783 ff3b 6a1a 71bb e28f e3bb 8691 b4bc
000002f0: 9083 fc3c da2a 3cbd c3ab 043d 3bb8 babc
00000300: b9c5 22bb d7b5 cbb9 ce87 143c 3d7c 1b3d
00000310: 7710 48bd 94e4 07bc a326 ba39 7085 2f3a
00000320: ad48 433d 549a 1e39 0c35 41bb 8ba8 d2bb
00000330: 6290 89bc 0c66 17b7 767d a5ba 2efd 043d
00000340: e8fb 543c 176e 0ebc b174 ce3d dc4f 7e3c
00000350: 2c6e 253d ba7e 043c 78a7 a9bc 2347 12bc
00000360: e40b 27bc 0cfa 98bb 60cc 8c3b 1816 2bbc
00000370: 54b7 17bc b975 e8bb 95e1 f3ba 41cf 4eba
00000380: 1d9a fa3b 3940 df3a 7ca7 c3ba ab0a a5bb
00000390: dcda afbc 374b c13b f489 cabc 7da8 b23c
000003a0: e0cd d53c 80c5 febc 8e73 8cbc c3bc 46bc
000003b0: 0539 a63a 3a9a d03b fe32 053a 6d6f 15bc
000003c0: 072f e3bb f004 793c b671 babc c604 82ba
000003d0: 24a7 c1bc 4f77 a1bb a6b3 0abd d52d dd3b
000003e0: 41fd 493b 4765 c83a 655a 353c e04c 8a3c
000003f0: 8c64 cc3c 8d55 0a3c 5213 843b 2705 253a
-0.017109565 -0.0064926767 -0.0032960519 -0.0017523417 -0.006584263 0.023408731 -0.0005271449 -0.005123555
-0.0021761507 -0.005396816 0.0084501365 -0.042514626 -0.02306208 -0.010052916 -0.0005404842 0.0005433598
-0.014570328 -0.0018792413 -0.023602428 0.014286637 0.017714942 -0.17347153 -0.007589791 -0.00027870882
-0.014561689 -0.004147842 0.008070389 0.038809318 -0.036271684 -0.044092443 0.008991459 0.0027206682
-0.003179516 -0.00880919 0.00027194043 -0.01017937 -0.008661693 -0.016697966 -0.00035659908 0.009419
-0.008321008 0.010712679 -0.022207191 -0.017380578 -0.0117609035 -0.00070002023 -0.005599335 -0.04410536
-0.0047874586 -0.08575462 -0.00051089353 0.027411513 -0.0027701433 -0.003110881 -0.0030056518 -0.010031223
0.00016262778 -0.015836732 0.0009433595 -0.0003008634 0.037995886 0.00054459396 -0.0032750107 -0.0050246906
-0.038694203 -0.01167442 -0.0016114897 0.004879767 -0.023515958 -0.0071811983 0.0032162694 -0.002276867
-0.026522405 0.0026304591 0.008789978 -0.0018673964 0.016440453 -0.048230138 -0.01109809 -0.006796037
0.0066202157 0.0006516073 0.0034524603 -0.01269714 8.7329216e-05 -0.010020693 -0.0046504927 -0.020895116
0.017179282 0.008062425 -0.026120342 -0.01088082 0.00834371 -0.023287222 -0.019544106 0.043185778
-0.0023274554 0.006916343 -0.0022302645 -0.007158098 -0.0049081217 -0.013714562 -0.007850059 -0.045267783
0.02881383 -0.028146833 0.0013564078 0.006329232 -0.0029263878 -0.014304102 0.0010001031 -0.015793372
-2.829927e-05 -0.003937269 -0.015220255 -0.00013713524 0.017126067 0.025065707 0.025490599 0.0038430782
-0.00873947 0.027435001 -0.02228616 -0.002729596 0.0103923315 -0.014595377 0.021356272 -0.0017303015
-0.003835149 -0.09255622 -0.016738495 3.031604e-05 -0.006265772 0.010093814 0.015917554 -0.0038654371
-0.020172598 0.031069692 0.019776875 -0.004041909 -0.008215583 0.03827676 0.0042853705 -0.00239075
0.0012830554 -0.032350898 0.0014668857 -0.01480024 -0.0023712914 -0.0039641988 -0.0014987341 -0.009319874
-0.0035621936 -0.017746601 -0.000991372 -0.011967274 0.0002484078 -0.0013346547 0.010896682 0.03185164
0.0053655235 0.024737086 -0.024070816 -0.022344038 0.008058835 -0.0025736154 0.03442483 -0.01583535
0.055189673 2.5264804e-05 0.005842762 0.028655779 -0.00979129 -0.038141496 -0.0007543001 -0.012966058
0.0023348595 -0.00552251 0.0076683555 0.020808537 -0.008754838 0.003390214 0.006289204 -0.01700991
0.007797602 -0.0036789426 -0.0069446424 -0.022042047 0.030824453 -0.045939304 0.032390367 -0.022792926
-0.002483709 -0.00038854658 0.0090655815 0.03796028 -0.048843827 -0.008294243 0.0003550547 0.0006695604
0.04767673 0.00015125546 -0.0029481081 -0.0064287833 -0.01679248 -9.024061e-06 -0.0012625891 0.032468013
0.012999512 -0.00869324 0.10080851 0.01552197 0.04038827 0.008086855 -0.020709738 -0.008928093
-0.010195706 -0.00466848 0.0042968243 -0.010442279 -0.009260017 -0.0070941118 -0.0018606657 -0.00078891596
0.0076477663 0.001703269 -0.0014927234 -0.005036672 -0.021466665 0.005898859 -0.024723984 0.021808857
0.026099145 -0.031100035 -0.017144945 -0.012129965 0.0012681788 0.0063660415 0.0005081146 -0.009120804
-0.0069330963 0.015198931 -0.0227593 -0.0009919635 -0.02363927 -0.004927553 -0.033862732 0.0067498484
0.0030821117 0.0015288972 0.011068915 0.01688236 0.024950288 0.008443248 0.0040306235 0.0006295018

linear2.bias f4 [2]
00000000: c50a f93d 5be6 a63d
0.12160257 0.081494056
